GAN/saveD.pt (torch, 240147 bytes, 3 tensors)

conv1.weight f4 [68, 17, 4, 4]
0	0xbcd95fdd	-0.026534969
1	0x3b4fa479	0.0031683727
2	0x3c9171e5	0.017754504
3	0x3cb9fef5	0.02270458
4	0xbb93ed44	-0.0045143683
5	0xbb4ba9fd	-0.0031076663
6	0x3d26b832	0.040703006
7	0xbded1c1d	-0.11577628
8	0xbd2d704c	-0.042343423
9	0x3d0a510a	0.03376869
10	0xbc270c95	-0.010195871
11	0x3d9246ba	0.07142396
12	0xb9e6d1d0	-0.0004402534
13	0xbd315009	-0.043289218
14	0xbd6a5e0b	-0.057218593
15	0xbd3a7ce7	-0.045529272
16	0x3d80a3ed	0.06281266
17	0xbcf924ad	-0.030412996
18	0x3d94169c	0.07230875
19	0xbd1083ad	-0.035281826
20	0x3c3a9500	0.011388063
21	0xbcb2b26d	-0.021813596
22	0xbddbbd2e	-0.107294425
23	0xbd211514	-0.039326742
24	0x3bff7648	0.0077960826
25	0xbc80a02a	-0.015701372
26	0xbc2922d4	-0.010323245
27	0xbcb0d4d0	-0.021585852
28	0x3b71520a	0.003682258
29	0xbded9e9d	-0.11602519
30	0xbd7afd7b	-0.061276894
31	0x3bebe4c6	0.007198903
32	0x3cf18ec6	0.029487025
33	0x3cba1dfb	0.022719374
34	0x3cbd8cfa	0.023138512
35	0xbd29561f	-0.041341897
36	0x3d3de786	0.046363376
37	0xbce287b7	-0.027652605
38	0x3bcf601f	0.006328597
39	0x3d80aaa8	0.0628255
40	0x3d048a3f	0.032358404
41	0xbcef7b81	-0.029233696
42	0xbb64afb1	-0.003489476
43	0x3cf21972	0.029553149
44	0xbca377a0	-0.019954503
45	0x3bec064e	0.0072029
46	0x3d1637f6	0.036674462
47	0x3c6f838b	0.014618765
48	0xbca7b8c0	-0.020473838
49	0x3d4e6327	0.050387528
50	0x3c692407	0.014229781
51	0x3d807e3c	0.06274077
52	0xbd2f0b0d	-0.04273515
53	0xbd4e2581	-0.050328735
54	0xbd276acc	-0.040873334
55	0xbc6328b5	-0.013864686
56	0x3cf671a8	0.030083492
57	0x3d860ec0	0.06545782
58	0x3d81fb2c	0.06346735
59	0x3c208839	0.009798103
60	0x3c1c420d	0.009537232
61	0xbd080fdb	-0.033218246
62	0xbcb80e33	-0.022467708
63	0x390c341e	0.00013370856
64	0x3d60537a	0.05476711
65	0xbbc8c7c1	-0.006127328
66	0x3c268d0c	0.010165464
67	0xbcc59fad	-0.02412399
68	0x3d1a712d	0.03770559
69	0x3c5ce524	0.013482366
70	0xbd076e08	-0.03306392
71	0x3d066d30	0.032818973
72	0x3c1bea99	0.009516382
73	0xbd93ddfd	-0.07220075
74	0x3d2591ca	0.04042224
75	0x3cb163ca	0.021654028
76	0xbaf60240	-0.0018768981
77	0xbccdae0f	-0.025107412
78	0x3d38792e	0.04503744
79	0xbcd56fd3	-0.026054299
80	0x3bc99d93	0.0061528175
81	0x3c3404eb	0.010987501
82	0x3c59a1f2	0.01328324
83	0xbdbb6582	-0.091502205
84	0xbb001b3c	-0.0019547483
85	0x3d1dd950	0.038537323
86	0xbd8d7c3e	-0.06908463
87	0xbb7a356d	-0.0038178817
88	0x3c747965	0.014921521
89	0xbc9bf3a2	-0.019037072
90	0x3b3761d8	0.0027981903
91	0x3be05b0c	0.006846791
92	0x3b9f709f	0.0048657204
93	0x3d1e8a50	0.038706124
94	0xbd8d7921	-0.06907869
95	0x3cc80bb1	0.024419637
96	0x3cfb1203	0.030648237
97	0x3bd0f4c6	0.0063768355
98	0xbd300aaa	-0.04297892
99	0xbc2cb5b5	-0.010541369
100	0x3cb1a9a7	0.021687342
101	0xbd8fe171	-0.070254214
102	0x3d032adb	0.032023292
103	0xbdd6e15f	-0.10492205
104	0xbd2dd999	-0.042443845
105	0x3c32d1a9	0.010914245
106	0x3d254dfd	0.04035758
107	0x3c5a734c	0.013333153
108	0x3b8185c4	0.0039527137
109	0xbb170cb7	-0.002304835
110	0xbb6db722	-0.0036272486
111	0xbcb97459	-0.022638487
112	0xbcd808c5	-0.02637137
113	0xbc47cb62	-0.012194486
114	0xbc9e7236	-0.01934157
115	0x3c90646d	0.017626012
116	0x3c7debeb	0.015498142
117	0x3d32bb53	0.043635678
118	0xbc9c50aa	-0.019081432
119	0x3d5a6bf4	0.05332561
120	0x3c150f51	0.00909789
121	0xbc87edf6	-0.01659296
122	0xbd241000	-0.04005432
123	0x3d0e9771	0.034812395
124	0xbb29a182	-0.002588362
125	0xbc8579d8	-0.016293451
126	0xbc7740f6	-0.0150911715
127	0x3d95bfb2	0.073119536
128	0x3c9846be	0.01858842
129	0xbb8050a0	-0.0039158612
130	0xbc82c2bb	-0.015961995
131	0x3c948b55	0.018132845
132	0x3cf409f7	0.029789908
133	0x3cc16fbd	0.023612851
134	0xbd5a87cd	-0.053352166
135	0xbd1d4c1c	-0.03840266
136	0x3d129b6b	0.03579275
137	0xbd171385	-0.03688385
138	0x3d38adc0	0.045087576
139	0x3cabd620	0.020976126
140	0xbbf8daca	-0.007594441
141	0x3c3b874b	0.011445831
142	0x3d1512f9	0.036395047
143	0xbd7bf54b	-0.061513226
144	0xbd10ac80	-0.03532076
145	0x3c3e5198	0.011616133
146	0x3ce83fd8	0.028350756
147	0xbc44deba	-0.012015993
148	0x3dac82d7	0.08423393
149	0x3d022778	0.03177592
150	0x3d258c91	0.040417258
151	0x3d335762	0.043784507
152	0xbda68fca	-0.08132894
153	0xbcdde797	-0.02708797
154	0x3c0917e2	0.0083675105
155	0x3b4c1030	0.0031137578
156	0x3d5627b7	0.05228397
157	0x3da4e339	0.08051152
158	0xbcf534b7	-0.029932363
159	0x3b921d1f	0.004459038
160	0x3d2cf3e2	0.042224772
161	0x3d36f1a5	0.044664044
162	0x3c6832c1	0.014172257
163	0xbd2b1b86	-0.041774295
164	0xbd2e9a46	-0.042627595
165	0x3ce063b3	0.02739129
166	0xbd6518af	-0.055931743
167	0x3d811c39	0.06304211
168	0x3c91dfe8	0.017806962
169	0xbd020e9e	-0.03175222
170	0xbd7459ac	-0.05965583
171	0xbc8ffa02	-0.017575268
172	0x3cfb410f	0.03067067
173	0x3d0f91b0	0.035051048
174	0xbaa6f966	-0.0012739121
175	0x3c561d5d	0.013068524
176	0x3d2ece57	0.04267725
177	0xbbdd6ea2	-0.006757573
178	0x3cbd474e	0.02310529
179	0x3ca81e5d	0.02052229
180	0xbd6af923	-0.0573665
181	0x3bc915c1	0.0061366265
182	0x3c1c7551	0.009549455
183	0xbcd825e7	-0.02638526
184	0x3cfe4697	0.03103952
185	0xbbe71981	-0.007052601
186	0xbd2e9d95	-0.04263075
187	0x3ccaf744	0.024776109
188	0x3bfd37ad	0.0077275843
189	0x3d40d41b	0.04707728
190	0xbd951893	-0.07280078
191	0xbca05001	-0.019569399
192	0xbbe6ff45	-0.0070494735
193	0xbbbe044a	-0.005798851
194	0x3d2c1dcd	0.042020608
195	0xbcc9b30e	-0.024621513
196	0x3d26f150	0.040757477
197	0x3b72e4ac	0.0037062569
198	0x3b68125c	0.0035411334
199	0xbbd6ceee	-0.0065554297
200	0x3bb3cbe5	0.0054869526
201	0xbd514e7c	-0.05110024
202	0x3d76e473	0.06027646
203	0xbd233a28	-0.039850384
204	0x3ce533c0	0.027978778
205	0x3d8fe1b4	0.07025471
206	0x3b6c1500	0.003602326
207	0x3d98a8b6	0.07454054
208	0x3d646672	0.055761762
209	0x3b71c36b	0.003689016
210	0x3d9ec2e8	0.07752019
211	0x3d31cfa0	0.043410897
212	0xbc8f1658	-0.017466709
213	0x3dc8b917	0.09800928
214	0xbcb403a8	-0.0219744
215	0x3ccb56fc	0.02482175
216	0xbcb4a771	-0.022052499
217	0xbc85f868	-0.0163538
218	0x3d66a0b2	0.056305595
219	0xbb4f49f5	-0.0031629775
220	0xbd242352	-0.040072747
221	0x3c9179e4	0.017758317
222	0xbda79635	-0.081829466
223	0x3d4af386	0.04954865
224	0x3c2220bc	0.0098955
225	0x3c52b43c	0.012860354
226	0xbaaba604	-0.0013095741
227	0xbc48a6e6	-0.012246823
228	0x3d462fae	0.048385315
229	0x3b52c5dc	0.003216139
230	0xbcf49ca5	-0.02985985
231	0x3b8b5672	0.0042522484
232	0x3cbb6b21	0.022878231
233	0xbd10d810	-0.035362303
234	0x3c691133	0.014225292
235	0xbca536fb	-0.020167818
236	0x3ca227f7	0.019794447
237	0xbc160cd0	-0.009158328
238	0x3c364bac	0.01112644
239	0x3d0c33c5	0.03422906
240	0xbc4cdb73	-0.012503493
241	0xb9de6dc6	-0.00042424927
242	0x3d0f2494	0.034946993
243	0xbc1a3f1f	-0.009414463
244	0xbceeb25f	-0.029137788
245	0xbc45f1c7	-0.01208157
246	0xbc9123b4	-0.01771722
247	0x3c90875b	0.017642668
248	0xbd045b7d	-0.032313813
249	0x3b631085	0.0034647298
250	0xbcce082f	-0.025150387
251	0xbd7171d1	-0.058946434
252	0xbc13e849	-0.009027549
253	0x3c2e1f6b	0.010627608
254	0x3cafa7c0	0.021442294
255	0xbd205ec4	-0.039152876

conv2.weight f4 [136, 68, 2, 2]
0	0xbdb0b126	-0.086275384
1	0xbd697581	-0.056996826
2	0x3c78200b	0.015144358
3	0x3c71e29f	0.014763503
4	0x3d8cb3cb	0.0687023
5	0xbc9841af	-0.018586008
6	0xbc30e023	-0.010795626
7	0x3da2603a	0.0792851
8	0x3d78e607	0.060766246
9	0x3d724bda	0.05915437
10	0x3db575ea	0.08860381
11	0x3cf51786	0.029918443
12	0x3c51f1b8	0.012813978
13	0x3ab293ae	0.0013624334
14	0xbc015e96	-0.007896086
15	0x3c61a74a	0.013772795
16	0x3d28cc9f	0.041210767
17	0x3c0bab27	0.008524693
18	0x3c980057	0.01855485
19	0x3cce28cf	0.025165943
20	0xbbdcfdb0	-0.006744109
21	0x3d10b6cf	0.03533059
22	0x3cb13fec	0.021636926
23	0x3d16bfdd	0.03680407
24	0x3d2c25c4	0.042028204
25	0x3bdf98fe	0.006823658
26	0x3db42bae	0.08797394
27	0x3c00acfe	0.007853745
28	0xbc66d707	-0.014089352
29	0xbdbbc131	-0.09167708
30	0x3d288cca	0.041149892
31	0x3d3d04d8	0.046147197
32	0x3d6089f8	0.054819077
33	0x3ccdf1c7	0.025139702
34	0xbc085bba	-0.008322651
35	0xbb12196e	-0.002229299
36	0xbd08760a	-0.033315696
37	0x3c25820a	0.0101018045
38	0x3a1c136d	0.00059538224
39	0x3ca0f4a3	0.019647902
40	0x3d19ba25	0.037531037
41	0xbd208e81	-0.039198402
42	0xbb888c2f	-0.004167102
43	0xbd8dff55	-0.06933466
44	0xbc7c02f5	-0.015381564
45	0x3c10879a	0.008821392
46	0x3d6a3ee4	0.057188883
47	0x3c948f32	0.018134687
48	0xbc84138e	-0.016122606
49	0x3c236007	0.009971625
50	0xbd0af885	-0.033928413
51	0xbddb6114	-0.107118756
52	0xbcb5a2f3	-0.022172427
53	0x3c33ac50	0.0109663755
54	0x3d04b968	0.03240338
55	0xbc5ee566	-0.013604498
56	0xbc54ea55	-0.012995322
57	0x3c4b5aa5	0.012411748
58	0xbacd9dc0	-0.0015687272
59	0xbcfce086	-0.03086878
60	0xbcb0f423	-0.021600788
61	0x3cfd4cdc	0.030920438
62	0x3d7de1cd	0.06198292
63	0x3d836e58	0.06417531
64	0xbd21a65a	-0.039465286
65	0x3d799c50	0.060940087
66	0x3da86b24	0.082235605
67	0x3d5ffa5a	0.054682113
68	0x3d3c5247	0.045976903
69	0xbcda2b65	-0.02663202
70	0x3d53e13c	0.051728472
71	0xbd81bf6b	-0.06335338
72	0xbd1cd717	-0.038291063
73	0xbc44819a	-0.01199379
74	0x3c2cbf10	0.0105436
75	0x3cfb3580	0.03066516
76	0xbbe25683	-0.0069072857
77	0x3d405455	0.046955425
78	0xbc6e5cd8	-0.014548503
79	0xbd1a9773	-0.03774209
80	0xbc25a9d9	-0.010111296
81	0x3b07c4f5	0.002071676
82	0x3cd8d6c6	0.0264696
83	0x3c8fa9b9	0.017536985
84	0xbd18b72f	-0.037284072
85	0x3cc08e23	0.023505276
86	0x3ccce554	0.025011696
87	0xbbbc3409	-0.0057435078
88	0x3d59bfc2	0.05316139
89	0x3d5afb24	0.053462163
90	0xbcd2a513	-0.02571348
91	0xbce7d90a	-0.028301734
92	0x3ca68c96	0.020330708
93	0xbd12dd83	-0.03585578
94	0xbd42fe15	-0.047605593
95	0xbcb50dac	-0.022101246
96	0x3c1df534	0.0096409805
97	0x3d1e73bb	0.038684588
98	0x3c9dc92c	0.019260965
99	0x3cfdcc60	0.030981243
100	0x3d237d8d	0.039914656
101	0x3c23ca4e	0.009996964
102	0xbcdd4f1c	-0.027015261
103	0xbccd4786	-0.02505852
104	0xbd73e042	-0.05954004
105	0xbc9204df	-0.017824588
106	0xbdd4d219	-0.103916354
107	0x3c93a5d5	0.01802341
108	0x3ba55684	0.005045714
109	0x3b97b514	0.0046297405
110	0x3d333fe7	0.043762114
111	0x3d9d60da	0.076844886
112	0x3c386240	0.011253893
113	0x3ccc2d40	0.02492392
114	0xbaaff818	-0.0013425378
115	0xba25e091	-0.00063277135
116	0x3b39d335	0.002835465
117	0xbcc5e712	-0.024158034
118	0xbd8b463e	-0.06800507
119	0xbd4a7a63	-0.049433123
120	0xbd6113a9	-0.05495039
121	0x3cc1f329	0.023675518
122	0xbcfc4f0c	-0.030799411
123	0x3c87b19d	0.016564185
124	0xbcf01b32	-0.029309843
125	0xbd0762ee	-0.03305333
126	0xbcb69ab3	-0.022290563
127	0xbce1c58c	-0.027560018
128	0x3d5b64e4	0.053563014
129	0x3c58e49b	0.013238098
130	0x3d45299d	0.04813539
131	0x3d9e1ea1	0.07720686
132	0xbd15b8ba	-0.036553122
133	0xbd1605c0	-0.036626577
134	0x3cdda4c5	0.027056107
135	0xbb6318d4	-0.003465225
136	0xbd7d145e	-0.061787
137	0x3d49e16e	0.049287252
138	0xbd9e6fdd	-0.0773618
139	0x3cf5b01b	0.0299912
140	0xbd8edbd6	-0.06975524
141	0xbd85f2af	-0.06540429
142	0xbcf8dd17	-0.030378861
143	0xbd0d15ec	-0.034444734
144	0xbca43a8c	-0.020047449
145	0xbdbcdf6f	-0.09222304
146	0xbd51ed36	-0.051251613
147	0xbd3f9aed	-0.046778608
148	0xbcef9d66	-0.029249858
149	0xbc7f17b8	-0.01556962
150	0xbc6d58c3	-0.0144864945
151	0xbc5b9ee1	-0.013404579
152	0x3cb68169	0.022278504
153	0xbd8e3fbb	-0.06945749
154	0x3cc93ccf	0.024565129
155	0x3b19a15d	0.0023442127
156	0xbacc4cb4	-0.0015586824
157	0x3b50c1b7	0.0031853744
158	0x3c03889a	0.008028174
159	0xbbe020e4	-0.0068398584
160	0x3c2b59fa	0.010458464
161	0xbd8beb15	-0.06831948
162	0xbc0ac4d0	-0.008469775
163	0xbcdcb81d	-0.02694326
164	0x3d7a53ef	0.0611152
165	0x3d27daf3	0.04098029
166	0x3d86393e	0.06553887
167	0x3c9b940e	0.018991496
168	0x3cd5be35	0.026091674
169	0x3c272137	0.01020079
170	0x3cb845a9	0.022494154
171	0xbd1367e2	-0.035987742
172	0x3cc10e11	0.023566278
173	0x3d2b4e50	0.04182273
174	0x3d67fb81	0.056636337
175	0x3d909f9f	0.07061695
176	0x3c9e9ba2	0.01936132
177	0xbd1e165d	-0.038595546
178	0x3cad7acb	0.021176716
179	0x3dac7f67	0.084227376
180	0x3cf7d59f	0.03025323
181	0x39f303e4	0.0004635147
182	0x3d1f0e5d	0.038832057
183	0xbd2148e1	-0.039376143
184	0x3ca2c018	0.019866988
185	0x3cffcc2f	0.031225292
186	0xbce21bee	-0.027601209
187	0x3ca886be	0.020572063
188	0xbd26ceae	-0.04072445
189	0xbd8349d9	-0.0641057
190	0xbd5f6138	-0.054536074
191	0xbd1f2a96	-0.038858972
192	0xbb9d6757	-0.004803579
193	0xbca0d01f	-0.01963049
194	0xbb81095c	-0.0039378833
195	0xbdb5cd27	-0.0887702
196	0xbd2872f1	-0.04112524
197	0x3d90453f	0.07044458
198	0x3bab51f8	0.0052282773
199	0x3d702b32	0.058634944
200	0x3d275f70	0.0408625
201	0x3cee9ab2	0.029126499
202	0x3ae1a44e	0.0017215104
203	0x3cdba8cb	0.026813885
204	0x3bb0c554	0.005394617
205	0x3cfcc22f	0.030854313
206	0xbc4148ec	-0.011797171
207	0xbd21f14e	-0.039536767
208	0xbc1b1752	-0.009466009
209	0xbd6622f2	-0.05618567
210	0x3cadded6	0.02122442
211	0x3d7ad70a	0.061240233
212	0xbca97cde	-0.020689424
213	0x3d06a7d1	0.032874886
214	0xbcefcbfe	-0.029272076
215	0x3c1f6f97	0.009731195
216	0xbb8e0e20	-0.00433518
217	0x3cdc5888	0.026897684
218	0x3d07944e	0.03310042
219	0xbda5196c	-0.080614895
220	0x3d91b33f	0.071142666
221	0xbce7df10	-0.028304607
222	0x3d4f8312	0.050662108
223	0xbc3153f2	-0.010823237
224	0x3d4e6b98	0.05039558
225	0x3cddb67e	0.027064558
226	0xbd6ec8c6	-0.05829694
227	0x3cf6443b	0.030061832
228	0x3d44c5d5	0.04804023
229	0xbc90e7eb	-0.017688712
230	0xbc989065	-0.01862354
231	0xbc3bc5f7	-0.011460773
232	0x3d04dbd8	0.03243622
233	0xbcbfb887	-0.02340342
234	0x3d28b192	0.04118497
235	0xbd6c41a2	-0.05767978
236	0xbd277697	-0.04088458
237	0xbd435193	-0.047685217
238	0x3d9b9bc4	0.07598069
239	0x3d55c92f	0.052193817
240	0xbd02f024	-0.031967297
241	0x3a7d17d9	0.00096547377
242	0x3d4f1f6a	0.05056707
243	0xbd41a9bd	-0.047281016
244	0xbc26662a	-0.010156194
245	0x3d1d8b15	0.038462717
246	0x3cd1ec12	0.025625262
247	0x3d0101c5	0.03149583
248	0xbd77dfb3	-0.06051607
249	0xbd99d30d	-0.07510958
250	0xbc72f72e	-0.01482944
251	0x3cc56473	0.02409575
252	0xbaef82f4	-0.001827328
253	0x3bfe29af	0.007756434
254	0xbaf8da26	-0.0018985912
255	0x3d996b36	0.07491152

linear1.weight f4 [1, 4080]
0	0xbb2eeb6d	-0.0026690618
1	0xbd3ac885	-0.045601387
2	0xbd6bf228	-0.057603985
3	0xbca61622	-0.020274226
4	0x3d791628	0.060812145
5	0x3ca9cdde	0.020728048
6	0xbd371fb2	-0.04470796
7	0xbc72ba52	-0.01481493
8	0xb91c7d75	-0.00014924056
9	0x3c35b6d5	0.011090954
10	0x3cc3ba61	0.023892583
11	0xbd1d2b83	-0.038371574
12	0xbd8fc35c	-0.07019684
13	0xbcfcfea7	-0.030883146
14	0x3c14ff44	0.009094063
15	0x3bea30fe	0.0071469536
16	0xbd481944	-0.04885222
17	0xbc725790	-0.014791384
18	0xbc22bb74	-0.009932388
19	0xbcee9c2d	-0.029127205
20	0xbcd120e2	-0.025528375
21	0xbd5ee270	-0.054415166
22	0xbd83490b	-0.06410416
23	0x3ca832fe	0.020532127
24	0xbcdfff3d	-0.027343387
25	0x3d115bb7	0.035487857
26	0xbd179815	-0.03701027
27	0xbd487f4b	-0.04894952
28	0xbc6aae5a	-0.014323795
29	0x3c42eba9	0.011897006
30	0xbd43e6af	-0.04782742
31	0xbbed4506	-0.0072408943
32	0xbbe9aa08	-0.007130865
33	0xbc90f5c2	-0.017695311
34	0xbcefa393	-0.029252803
35	0xbaa49f82	-0.0012559744
36	0x3bb0f269	0.0053999913
37	0x3c81a75a	0.01582687
38	0x3c8241a5	0.015900442
39	0xbba77146	-0.005109939
40	0x3d10d7cc	0.03536205
41	0x3cad4300	0.021150112
42	0x3d83fe46	0.06444983
43	0x3d64d5fb	0.05586813
44	0x3d462ca0	0.0483824
45	0x3c5ea0a0	0.013588101
46	0xbcb4c011	-0.02206424
47	0x3d4d7006	0.050155662
48	0x3d91485a	0.07093878
49	0x3d6f5558	0.058431
50	0x3d6b60f6	0.057465516
51	0xbba15ac1	-0.004924149
52	0x3d06c306	0.032900833
53	0x3ce7a6a9	0.028277712
54	0x3cd5ecaa	0.026113827
55	0xbca33ffe	-0.019927975
56	0xba57958c	-0.00082238833
57	0x3c2337e6	0.009962058
58	0x3b0cca47	0.0021482871
59	0xbcb5c9f4	-0.022191025
60	0xbbe1e213	-0.006893405
61	0x3c9b929e	0.018990811
62	0x3c5bad25	0.01340798
63	0x3c9fb5a6	0.019495796
64	0x3c9206c8	0.0178255
65	0x3ccbd1f7	0.024880392
66	0xbcb7a2e2	-0.022416536
67	0xbcc8f2ed	-0.024529899
68	0xbb02ed39	-0.0019977822
69	0x3cb2a805	0.021808634
70	0xbc898771	-0.016788216
71	0x3cb949a9	0.022618132
72	0x3b9a4541	0.0047079627
73	0x3c1f7801	0.009733201
74	0x3c396f6c	0.011318069
75	0xbca9f3f8	-0.020746216
76	0x3a8be182	0.0010672065
77	0xbb8f288a	-0.0043688463
78	0xba162a27	-0.0005728327
79	0xbbe1ceea	-0.006891121
80	0x3c812694	0.015765466
81	0x3bf88823	0.007584588
82	0x3986fdc8	0.00025747553
83	0x3cb03a03	0.021512037
84	0xbc61449e	-0.01374927
85	0x3d61677f	0.055030342
86	0x3d16f0cb	0.03685073
87	0x3d521b68	0.051295668
88	0x3ccee7f2	0.025257085
89	0x3c430946	0.011904066
90	0xbc80edcb	-0.015738389
91	0xbc92df17	-0.017928643
92	0x3bb8d030	0.0056400523
93	0xbd1cd4c2	-0.03828884
94	0xbc245484	-0.010029916
95	0xbccc3b32	-0.02493057
96	0x3c135e3d	0.008994636
97	0x3c5e12e2	0.013554307
98	0xbd129b19	-0.035792444
99	0xbc3a6cb3	-0.011378455
100	0xbcf4a830	-0.029865354
101	0x3b4ef0ed	0.0031576708
102	0xbd3e1ad9	-0.046412323
103	0xbd238cd9	-0.039929245
104	0x3bc2c338	0.005943682
105	0xbd46848c	-0.04846625
106	0xbcc42ab2	-0.02394614
107	0xbcc0183b	-0.023449054
108	0xbd6b7c52	-0.057491608
109	0xbd1d1408	-0.03834918
110	0xbd2794f9	-0.040913556
111	0xbd3e95a4	-0.046529427
112	0xbc822908	-0.015888706
113	0xbd724940	-0.059151888
114	0xbd29531a	-0.041339017
115	0xbd6697f2	-0.05629725
116	0xbdc5221c	-0.096256465
117	0xbdbdf9bb	-0.09276148
118	0xbd7df3ba	-0.062000014
119	0x3d95be60	0.07311702
120	0x3cea62ab	0.028611502
121	0x3c5cbcc5	0.013472741
122	0x3c2fd42d	0.010731739
123	0x3ae1200f	0.0017175692
124	0x3d2fe284	0.04294063
125	0xbc5365de	-0.012902705
126	0xbd52b3b0	-0.051440895
127	0xbbdedef5	-0.006801481
128	0xbd109d9b	-0.035306554
129	0xbd598186	-0.05310204
130	0xbcd177f0	-0.025569886
131	0xbd17e449	-0.037082944
132	0x3b7e72db	0.0038825783
133	0xbcbdc30e	-0.023164298
134	0xbd34b3e0	-0.044116855
135	0xbd0c0aa3	-0.03418983
136	0xbd4f51ae	-0.050615005
137	0xbcdb1d89	-0.026747482
138	0xbd92b825	-0.07164029
139	0xbd1a05d3	-0.03760321
140	0xbd486ac1	-0.048929933
141	0xbd8bcb99	-0.068259425
142	0xbd1c311f	-0.038132783
143	0xbd32c2b1	-0.043642703
144	0xbd18c80a	-0.037300147
145	0xbc8aeb8a	-0.016958017
146	0xbd7d15e3	-0.06178845
147	0xbd82b219	-0.06381626
148	0xbdb9a2dd	-0.09064267
149	0xbd5255da	-0.051351406
150	0xbcc7eaf2	-0.024404023
151	0xbc937acb	-0.018002888
152	0xbcba96b0	-0.022776932
153	0xbcae41ab	-0.021271547
154	0xbbe5af30	-0.0070094094
155	0xbd34d3a1	-0.044147138
156	0x3b5eb92d	0.0033984885
157	0x3a4337ef	0.00074469944
158	0xbcb555d7	-0.022135658
159	0xbd48d82f	-0.049034294
160	0xbcbbc463	-0.022920793
161	0x3ca53b8f	0.020170001
162	0x3d12924e	0.03578406
163	0xbbd646ce	-0.0065392023
164	0xbd51cf1c	-0.051222906
165	0xbca956e8	-0.020671323
166	0x3c57e389	0.013176807
167	0xbc275b41	-0.010214628
168	0xbc34a45b	-0.0110255135
169	0xbd1c24d3	-0.038121056
170	0xbd8b179c	-0.067916125
171	0xbcd9d09a	-0.026588727
172	0xbd7ab1fe	-0.061204903
173	0xbc80c373	-0.015718197
174	0xbd8382f0	-0.06421459
175	0xbd981b03	-0.07427027
176	0xbdb78d58	-0.08962506
177	0xbdf53d24	-0.11974552
178	0xbda986ea	-0.08277686
179	0xbd765c13	-0.060146403
180	0xbce39d4e	-0.02778497
181	0x3c4c5e0c	0.012473594
182	0xbc71ce30	-0.014758632
183	0xbcd1096d	-0.02551719
184	0xbd575023	-0.05256666
185	0xbc55d202	-0.013050558
186	0xbc1dc7bd	-0.009630141
187	0x3c9e5c58	0.019331142
188	0x3c878ee6	0.016547631
189	0x3c76d035	0.015064289
190	0x3bd3131b	0.0064414865
191	0x3d516549	0.051121984
192	0x3b1f08d6	0.0024266741
193	0x3d3a438c	0.045474574
194	0x3c2b6d96	0.010463139
195	0x3c8db049	0.017295973
196	0xbcd683eb	-0.02618595
197	0xbc438a5d	-0.011934844
198	0x3d21b2a5	0.03947701
199	0x3c1c6da7	0.0095476275
200	0xbd36832c	-0.04455869
201	0x3d1c5b43	0.03817297
202	0xbb9f0a07	-0.0048534903
203	0xbc3ec6a3	-0.011644038
204	0xbaa0807f	-0.0012245326
205	0x3ccaa673	0.024737572
206	0x3d51a987	0.051187064
207	0x3d165674	0.036703542
208	0x3c98e33a	0.018663038
209	0x3c9a73ec	0.018854104
210	0xbc9e7e35	-0.01934729
211	0x3b68aa20	0.0035501793
212	0xbcfa5fd0	-0.030563265
213	0xbcaee621	-0.021349968
214	0xbb3ac3e7	-0.0028498115
215	0xbb80c372	-0.003929549
216	0xbc8f7274	-0.01751063
217	0xbceb9f6d	-0.028762544
218	0xbcb9fe6a	-0.022704322
219	0xbd6df7a5	-0.0580975
220	0xbd431cd9	-0.047634933
221	0xbd24a7d6	-0.040199123
222	0x3c8580df	0.016296802
223	0xbcd3b5c6	-0.025843512
224	0xbda7ec7f	-0.08199405
225	0xbd275ce2	-0.040860064
226	0xbd50881b	-0.05091105
227	0xbd03323d	-0.032030333
228	0xbd14b5fa	-0.03630636
229	0xbd926742	-0.07148601
230	0xbd887115	-0.06662194
231	0xbd548508	-0.05188468
232	0xbd3b1d06	-0.045681976
233	0xbd6bee4f	-0.057600316
234	0xbd209c3f	-0.039211508
235	0xbdb8ee91	-0.09029878
236	0xbd33a469	-0.043857966
237	0xbd6299b4	-0.055322364
238	0xbd8690d5	-0.06570593
239	0xbd924bdd	-0.07143376
240	0x3d3f2d73	0.046674203
241	0xbc0eb27b	-0.008709545
242	0x3d42b0ef	0.04753202
243	0x3cb3e20d	0.021958375
244	0x3caf9366	0.02143259
245	0xbcebb756	-0.028773945
246	0xbc9f008e	-0.019409444
247	0x3c564215	0.013077279
248	0xbc6c4ecb	-0.014423083
249	0xbc92bc46	-0.017912041
250	0xbc8c3280	-0.017113924
251	0xbce66ed8	-0.028129026
252	0xbd1f6b4a	-0.03892068
253	0xbd34b042	-0.044113405
254	0xbccf5479	-0.025308834
255	0xbcc0b9bd	-0.023526067
