GAN/saveG.pt (torch, 524947 bytes, 15 tensors)

linear1.weight f4 [4080, 16]
000000 d2 11 25 3d 3e 4e 44 bd 1e 0a eb bd 28 e7 35 3d
       0.040300198 -0.04792618 -0.11476539 0.0444099
000010 b3 dd 90 bb 37 b0 b7 bd 8a 57 5a 3d 32 ff 0f be
       -0.00442096 -0.08969157 0.05330614 -0.14062193
000020 22 00 5b ba 1b a0 94 3c a1 95 87 3d e9 d4 7b 3d
       -0.0008354207 0.01814275 0.06620336 0.061482344
000030 3b 42 84 bd 18 98 a6 bc 5e 90 a3 bc 9a 0f c6 bc
       -0.06457945 -0.020336196 -0.0199663 -0.024177361
000040 05 6d 83 3e e7 f8 16 3f ad f1 84 bf cd 93 63 bf
       0.25669113 0.58973545 -1.0386254 -0.888974
000050 2b 6b 4d 3f ae 95 de 3e 52 3a a1 be 9d 24 50 3e
       0.8024165 0.43473572 -0.31489807 0.20326467
000060 9b 7c 33 bf 05 b4 60 be 00 04 af 3e 83 2e eb 3e
       -0.7011201 -0.21943672 0.3418274 0.45933923
000070 fe bd c0 be 25 94 a8 3f 17 ee 97 bf c5 d2 de 3d
       -0.37644953 1.317021 -1.1869534 0.10880045
000080 85 c7 76 be 00 e9 1a 3e b5 a6 13 3f 76 67 f8 be
       -0.24099548 0.15127945 0.5767625 -0.48516434
000090 13 87 5f 3f be 82 2b bf 92 0d e7 3e 83 12 00 be
       0.8731548 -0.6699637 0.4512754 -0.12507062
0000a0 1c 43 43 be 56 db 09 bf eb 15 8f bf db 0f 9e 3e
       -0.19068569 -0.53850305 -1.1178564 0.30871472
0000b0 6a 5e 38 3d 64 db 48 3c 89 34 d3 be 8a 19 74 bd
       0.045011915 0.012259338 -0.4125102 -0.05959467
0000c0 8c a6 9c 3d 2a f1 73 be 66 b0 a9 bd cf c1 5d 3e
       0.07648954 -0.23822466 -0.082855985 0.21655963
0000d0 07 25 a4 3d 3e fb 30 3e bf 0d 3e bf 29 43 c9 3c
       0.08014875 0.17283341 -0.74239725 0.024568157
0000e0 09 b1 14 3f cb cc 82 3e 6e 3e 09 3f 5b 7a 79 be
       0.58082634 0.2554687 0.53610885 -0.24363081
0000f0 24 b3 0b 3f 49 0b cf be 83 da c0 be b9 4f a0 be
       0.5457022 -0.40438297 -0.3766671 -0.31310824
000100 48 b1 56 3f 15 fa f5 be 8f 03 94 bf 90 46 0a be
       0.8386426 -0.4804236 -1.1563586 -0.1350348
000110 48 f7 57 be 65 f9 9d 3f ed f0 68 be 82 65 82 3e
       -0.21090424 1.2341734 -0.22748156 0.2546807
000120 9b eb 75 3f 0f ce a3 3f 1b da 1b 3f b5 0b 9c 3f
       0.9606263 1.2797259 0.6087968 1.2191073
000130 40 ee ce 3f 8c 04 39 3d 66 4b 3c bf 3f 08 41 3f
       1.6166458 0.045170352 -0.7355255 0.7540321
000140 68 45 52 3e de 2b a0 3e 38 60 34 be 01 0e 29 3f
       0.20534289 0.31283468 -0.1761483 0.66036993
000150 69 16 df 3d ae 7b 13 be f9 67 37 be ae 04 d3 be
       0.10892946 -0.14402649 -0.17910756 -0.41214508
000160 36 26 52 be 01 01 25 3e 94 82 7a 3e 28 5d 21 bd
       -0.20522389 0.16113664 0.24463874 -0.03939548
000170 8f 75 9c 3e 49 8c 5d be c0 83 4c bd f0 9a 41 be
       0.3055844 -0.21635546 -0.049930334 -0.1890676
000180 68 9c a9 be 42 c8 d2 3e be 7d c7 3e 30 27 4b 3f
       -0.3312714 0.4116841 0.3896312 0.7935667
000190 df 28 10 3f 15 d2 2e be 58 6f 18 3e 52 fc 83 bd
       0.56312364 -0.17072327 0.14886224 -0.06444611
0001a0 a1 89 9a be 65 81 0f bd 8a fb 0f bf ac 88 9a 3e
       -0.30183128 -0.03503551 -0.56243193 0.30182397
0001b0 e7 b3 53 3f e8 9b 0d 3f 04 6c 36 bf 11 9c 0e 3e
       0.82696384 0.5531602 -0.7125857 0.13926722
0001c0 47 c8 45 3d bc 49 97 bd 0f db 5a be 51 94 8a 3e
       0.048286702 -0.073871106 -0.21372627 0.2706628
0001d0 39 83 97 bd 20 a4 34 be be 4b 09 be cd 76 02 3f
       -0.073980756 -0.17640734 -0.134078 0.50962526
0001e0 be d1 fb 3d eb 3c 7c 3e fa b4 b0 bd 3c b9 fc 3e
       0.122958645 0.24632613 -0.086282685 0.49360073
0001f0 27 28 4f 3e 04 ec 31 be 69 5d be ba 4d 91 2c be
       0.2023016 -0.17375189 -0.0014523688 -0.16852303
000200 07 8a 8c 3d fb a5 48 3e 72 0b 75 bd 27 59 0f 3e
       0.06862264 0.19594567 -0.05982537 0.13998853
000210 1b 16 a7 bc 4d 87 34 bd af 55 15 be 63 86 ab 3d
       -0.020396283 -0.044074345 -0.14583467 0.083752416
000220 d3 a0 ea 3d 0b fb 02 be 5a 62 bf bb 7d e0 b8 3d
       0.11456456 -0.12791078 -0.005840582 0.09027193
000230 30 17 96 3e c5 cd 98 be cb 69 9f 3d 06 74 2b 3e
       0.29314566 -0.2984449 0.0778385 0.16743478
000240 dd ff 10 be 72 2d f5 be 5f 41 d8 3e 91 06 0b bf
       -0.14160104 -0.47886235 0.42237374 -0.54306895
000250 ee cc c1 bc 77 2e 09 3c ca 41 f0 3c 50 11 2d bd
       -0.023657288 0.0083728945 0.029328246 -0.04225284
000260 b3 0d af be e0 8c e5 be 3a 79 6f be 7a 1d 39 bf
       -0.3419014 -0.44834042 -0.23386088 -0.723106
000270 66 40 95 3d cb f1 42 3e ea 59 3e bf 76 c4 af be
       0.07287674 0.19037549 -0.7435595 -0.34329575
000280 a1 34 c3 be 7e cd 6e be b7 52 73 bd 3b 63 13 be
       -0.3812609 -0.23320577 -0.059405055 -0.14393322
000290 44 b4 22 3e dd ad f7 3d 94 ae 69 3e 6e d0 80 bd
       0.15889078 0.12093709 0.22820503 -0.06289755
0002a0 8d cb 6a 3e a6 fc d7 3e 0d 7e 92 3f 6a 1a 0c 3f
       0.22929211 0.42184943 1.1444718 0.54727805
0002b0 b1 e0 71 3f f9 06 8a be f2 f8 6d 3e 78 71 3a be
       0.94483477 -0.26958445 0.23239496 -0.18207347
0002c0 fd fd b5 3d 4d 91 4c bf 8b d4 be bc cd c1 43 3f
       0.08886335 -0.7990921 -0.023294708 0.7646759
0002d0 ff 94 97 bf 88 21 f9 3d 65 94 f3 be 01 01 de 3f
       -1.1842345 0.12164599 -0.47574154 1.7344056
0002e0 5e 79 55 3f 43 e8 b6 3e c2 5a a2 bf 42 fa b4 bf
       0.83388317 0.35724077 -1.2683947 -1.4138873
0002f0 d1 d0 41 bd fb b7 4b bf cc ec 30 be ac 98 59 3f
       -0.047318283 -0.79577607 -0.17277831 0.84998584
000300 d6 1e 2d 3c d1 ef dd be 7e e6 1e be 76 80 bb 3e
       0.010566434 -0.43347028 -0.15517613 0.36621445
000310 56 a3 e4 bd 31 3e 96 3d 21 e4 63 be 75 aa 75 be
       -0.11163966 0.07336081 -0.22254993 -0.23990805
000320 82 ea b1 be 1d 0a 31 be b2 40 c0 3e 06 00 dd 3e
       -0.34749228 -0.17289014 0.3754936 0.4316408
000330 ed 45 c5 3e 59 05 07 bf 21 2b 00 3f e3 d2 98 be
       0.38529912 -0.52742535 0.5006581 -0.29848394
000340 ae 46 06 be 93 3b bd 3d 22 9f 17 be f6 9e 48 bd
       -0.131129 0.092398785 -0.14806798 -0.048979722
000350 00 96 d6 3d da 2d 98 3e 6d 53 0a 3e 63 77 0f 3d
       0.10477829 0.29722482 0.13508387 0.035025965
000360 de 13 cc 3d c7 07 57 3e fa 46 73 bd 84 1d 78 3e
       0.09964727 0.2099906 -0.05939386 0.2423001
000370 b0 c1 f4 3d 18 63 c8 bc b7 9c 3f bd 2a d7 b4 3d
       0.119510055 -0.024461314 -0.046780314 0.08830102
000380 4f d1 f2 be d6 e4 70 3e 98 02 20 bf 6a 69 6e 3f
       -0.47425315 0.23524794 -0.6250396 0.931296
000390 a1 7d 28 be 42 a4 d7 be 9e 63 17 bd 04 cb bf 3e
       -0.16454174 -0.42117506 -0.036960237 0.37459576
0003a0 b8 b1 30 be 51 e8 ea bd 06 15 b0 3d 61 eb 51 3f
       -0.17255294 -0.11470092 0.0859776 0.81999785
0003b0 98 0f 92 3f 91 b5 19 bf 86 77 6e be 01 3a cd 3d
       1.1411009 -0.60042673 -0.23287782 0.10020829
0003c0 89 d9 0e be 41 a6 5d 3e ea 87 66 ba e0 ef d4 3e
       -0.1395017 0.21645452 -0.00087940565 0.4158926
0003d0 92 14 13 3d 16 25 a5 bc d3 a6 93 3e 36 b1 72 be
       0.03590829 -0.020159286 0.28838214 -0.23700413
0003e0 89 d1 08 3e 83 38 98 3e bb 2e df 3e bc 6a 46 3e
       0.13361181 0.29730615 0.4359034 0.19376653
0003f0 54 04 22 3f 8c ca 74 be 14 77 56 be 1e c9 3d bd
       0.63287854 -0.2390539 -0.20943862 -0.04633438

bn1d1.weight f4 [4080]
000000 00 00 80 3f 00 00 80 3f 00 00 80 3f 00 00 80 3f
       1.0 1.0 1.0 1.0
000010 00 00 80 3f 00 00 80 3f 00 00 80 3f 00 00 80 3f
       1.0 1.0 1.0 1.0
000020 00 00 80 3f 00 00 80 3f 00 00 80 3f 00 00 80 3f
       1.0 1.0 1.0 1.0
000030 00 00 80 3f 00 00 80 3f 00 00 80 3f 00 00 80 3f
       1.0 1.0 1.0 1.0
000040 00 00 80 3f 00 00 80 3f 00 00 80 3f 00 00 80 3f
       1.0 1.0 1.0 1.0
000050 00 00 80 3f 00 00 80 3f 00 00 80 3f 00 00 80 3f
       1.0 1.0 1.0 1.0
000060 00 00 80 3f 00 00 80 3f 00 00 80 3f 00 00 80 3f
       1.0 1.0 1.0 1.0
000070 00 00 80 3f 00 00 80 3f 00 00 80 3f 00 00 80 3f
       1.0 1.0 1.0 1.0
000080 00 00 80 3f 00 00 80 3f 00 00 80 3f 00 00 80 3f
       1.0 1.0 1.0 1.0
000090 00 00 80 3f 00 00 80 3f 00 00 80 3f 00 00 80 3f
       1.0 1.0 1.0 1.0
0000a0 00 00 80 3f 00 00 80 3f 00 00 80 3f 00 00 80 3f
       1.0 1.0 1.0 1.0
0000b0 00 00 80 3f 00 00 80 3f 00 00 80 3f 00 00 80 3f
       1.0 1.0 1.0 1.0
0000c0 00 00 80 3f 00 00 80 3f 00 00 80 3f 00 00 80 3f
       1.0 1.0 1.0 1.0
0000d0 00 00 80 3f 00 00 80 3f 00 00 80 3f 00 00 80 3f
       1.0 1.0 1.0 1.0
0000e0 00 00 80 3f 00 00 80 3f 00 00 80 3f 00 00 80 3f
       1.0 1.0 1.0 1.0
0000f0 00 00 80 3f 00 00 80 3f 00 00 80 3f 00 00 80 3f
       1.0 1.0 1.0 1.0
000100 00 00 80 3f 00 00 80 3f 00 00 80 3f 00 00 80 3f
       1.0 1.0 1.0 1.0
000110 00 00 80 3f 00 00 80 3f 00 00 80 3f 00 00 80 3f
       1.0 1.0 1.0 1.0
000120 00 00 80 3f 00 00 80 3f 00 00 80 3f 00 00 80 3f
       1.0 1.0 1.0 1.0
000130 00 00 80 3f 00 00 80 3f 00 00 80 3f 00 00 80 3f
       1.0 1.0 1.0 1.0
000140 00 00 80 3f 00 00 80 3f 00 00 80 3f 00 00 80 3f
       1.0 1.0 1.0 1.0
000150 00 00 80 3f 00 00 80 3f 00 00 80 3f 00 00 80 3f
       1.0 1.0 1.0 1.0
000160 00 00 80 3f 00 00 80 3f 00 00 80 3f 00 00 80 3f
       1.0 1.0 1.0 1.0
000170 00 00 80 3f 00 00 80 3f 00 00 80 3f 00 00 80 3f
       1.0 1.0 1.0 1.0
000180 00 00 80 3f 00 00 80 3f 00 00 80 3f 00 00 80 3f
       1.0 1.0 1.0 1.0
000190 00 00 80 3f 00 00 80 3f 00 00 80 3f 00 00 80 3f
       1.0 1.0 1.0 1.0
0001a0 00 00 80 3f 00 00 80 3f 00 00 80 3f 00 00 80 3f
       1.0 1.0 1.0 1.0
0001b0 00 00 80 3f 00 00 80 3f 00 00 80 3f 00 00 80 3f
       1.0 1.0 1.0 1.0
0001c0 00 00 80 3f 00 00 80 3f 00 00 80 3f 00 00 80 3f
       1.0 1.0 1.0 1.0
0001d0 00 00 80 3f 00 00 80 3f 00 00 80 3f 00 00 80 3f
       1.0 1.0 1.0 1.0
0001e0 00 00 80 3f 00 00 80 3f 00 00 80 3f 00 00 80 3f
       1.0 1.0 1.0 1.0
0001f0 00 00 80 3f 00 00 80 3f 00 00 80 3f 00 00 80 3f
       1.0 1.0 1.0 1.0
000200 00 00 80 3f 00 00 80 3f 00 00 80 3f 00 00 80 3f
       1.0 1.0 1.0 1.0
000210 00 00 80 3f 00 00 80 3f 00 00 80 3f 00 00 80 3f
       1.0 1.0 1.0 1.0
000220 00 00 80 3f 00 00 80 3f 00 00 80 3f 00 00 80 3f
       1.0 1.0 1.0 1.0
000230 00 00 80 3f 00 00 80 3f 00 00 80 3f 00 00 80 3f
       1.0 1.0 1.0 1.0
000240 00 00 80 3f 00 00 80 3f 00 00 80 3f 00 00 80 3f
       1.0 1.0 1.0 1.0
000250 00 00 80 3f 00 00 80 3f 00 00 80 3f 00 00 80 3f
       1.0 1.0 1.0 1.0
000260 00 00 80 3f 00 00 80 3f 00 00 80 3f 00 00 80 3f
       1.0 1.0 1.0 1.0
000270 00 00 80 3f 00 00 80 3f 00 00 80 3f 00 00 80 3f
       1.0 1.0 1.0 1.0
000280 00 00 80 3f 00 00 80 3f 00 00 80 3f 00 00 80 3f
       1.0 1.0 1.0 1.0
000290 00 00 80 3f 00 00 80 3f 00 00 80 3f 00 00 80 3f
       1.0 1.0 1.0 1.0
0002a0 00 00 80 3f 00 00 80 3f 00 00 80 3f 00 00 80 3f
       1.0 1.0 1.0 1.0
0002b0 00 00 80 3f 00 00 80 3f 00 00 80 3f 00 00 80 3f
       1.0 1.0 1.0 1.0
0002c0 00 00 80 3f 00 00 80 3f 00 00 80 3f 00 00 80 3f
       1.0 1.0 1.0 1.0
0002d0 00 00 80 3f 00 00 80 3f 00 00 80 3f 00 00 80 3f
       1.0 1.0 1.0 1.0
0002e0 00 00 80 3f 00 00 80 3f 00 00 80 3f 00 00 80 3f
       1.0 1.0 1.0 1.0
0002f0 00 00 80 3f 00 00 80 3f 00 00 80 3f 00 00 80 3f
       1.0 1.0 1.0 1.0
000300 00 00 80 3f 00 00 80 3f 00 00 80 3f 00 00 80 3f
       1.0 1.0 1.0 1.0
000310 00 00 80 3f 00 00 80 3f 00 00 80 3f 00 00 80 3f
       1.0 1.0 1.0 1.0
000320 00 00 80 3f 00 00 80 3f 00 00 80 3f 00 00 80 3f
       1.0 1.0 1.0 1.0
000330 00 00 80 3f 00 00 80 3f 00 00 80 3f 00 00 80 3f
       1.0 1.0 1.0 1.0
000340 00 00 80 3f 00 00 80 3f 00 00 80 3f 00 00 80 3f
       1.0 1.0 1.0 1.0
000350 00 00 80 3f 00 00 80 3f 00 00 80 3f 00 00 80 3f
       1.0 1.0 1.0 1.0
000360 00 00 80 3f 00 00 80 3f 00 00 80 3f 00 00 80 3f
       1.0 1.0 1.0 1.0
000370 00 00 80 3f 00 00 80 3f 00 00 80 3f 00 00 80 3f
       1.0 1.0 1.0 1.0
000380 00 00 80 3f 00 00 80 3f 00 00 80 3f 00 00 80 3f
       1.0 1.0 1.0 1.0
000390 00 00 80 3f 00 00 80 3f 00 00 80 3f 00 00 80 3f
       1.0 1.0 1.0 1.0
0003a0 00 00 80 3f 00 00 80 3f 00 00 80 3f 00 00 80 3f
       1.0 1.0 1.0 1.0
0003b0 00 00 80 3f 00 00 80 3f 00 00 80 3f 00 00 80 3f
       1.0 1.0 1.0 1.0
0003c0 00 00 80 3f 00 00 80 3f 00 00 80 3f 00 00 80 3f
       1.0 1.0 1.0 1.0
0003d0 00 00 80 3f 00 00 80 3f 00 00 80 3f 00 00 80 3f
       1.0 1.0 1.0 1.0
0003e0 00 00 80 3f 00 00 80 3f 00 00 80 3f 00 00 80 3f
       1.0 1.0 1.0 1.0
0003f0 00 00 80 3f 00 00 80 3f 00 00 80 3f 00 00 80 3f
       1.0 1.0 1.0 1.0

bn1d1.bias f4 [4080]
000000 00 00 00 00 00 00 00 00 00 00 00 00 00 00 00 00
       0.0 0.0 0.0 0.0
000010 00 00 00 00 00 00 00 00 00 00 00 00 00 00 00 00
       0.0 0.0 0.0 0.0
000020 00 00 00 00 00 00 00 00 00 00 00 00 00 00 00 00
       0.0 0.0 0.0 0.0
000030 00 00 00 00 00 00 00 00 00 00 00 00 00 00 00 00
       0.0 0.0 0.0 0.0
000040 00 00 00 00 00 00 00 00 00 00 00 00 00 00 00 00
       0.0 0.0 0.0 0.0
000050 00 00 00 00 00 00 00 00 00 00 00 00 00 00 00 00
       0.0 0.0 0.0 0.0
000060 00 00 00 00 00 00 00 00 00 00 00 00 00 00 00 00
       0.0 0.0 0.0 0.0
000070 00 00 00 00 00 00 00 00 00 00 00 00 00 00 00 00
       0.0 0.0 0.0 0.0
000080 00 00 00 00 00 00 00 00 00 00 00 00 00 00 00 00
       0.0 0.0 0.0 0.0
000090 00 00 00 00 00 00 00 00 00 00 00 00 00 00 00 00
       0.0 0.0 0.0 0.0
0000a0 00 00 00 00 00 00 00 00 00 00 00 00 00 00 00 00
       0.0 0.0 0.0 0.0
0000b0 00 00 00 00 00 00 00 00 00 00 00 00 00 00 00 00
       0.0 0.0 0.0 0.0
0000c0 00 00 00 00 00 00 00 00 00 00 00 00 00 00 00 00
       0.0 0.0 0.0 0.0
0000d0 00 00 00 00 00 00 00 00 00 00 00 00 00 00 00 00
       0.0 0.0 0.0 0.0
0000e0 00 00 00 00 00 00 00 00 00 00 00 00 00 00 00 00
       0.0 0.0 0.0 0.0
0000f0 00 00 00 00 00 00 00 00 00 00 00 00 00 00 00 00
       0.0 0.0 0.0 0.0
000100 00 00 00 00 00 00 00 00 00 00 00 00 00 00 00 00
       0.0 0.0 0.0 0.0
000110 00 00 00 00 00 00 00 00 00 00 00 00 00 00 00 00
       0.0 0.0 0.0 0.0
000120 00 00 00 00 00 00 00 00 00 00 00 00 00 00 00 00
       0.0 0.0 0.0 0.0
000130 00 00 00 00 00 00 00 00 00 00 00 00 00 00 00 00
       0.0 0.0 0.0 0.0
000140 00 00 00 00 00 00 00 00 00 00 00 00 00 00 00 00
       0.0 0.0 0.0 0.0
000150 00 00 00 00 00 00 00 00 00 00 00 00 00 00 00 00
       0.0 0.0 0.0 0.0
000160 00 00 00 00 00 00 00 00 00 00 00 00 00 00 00 00
       0.0 0.0 0.0 0.0
000170 00 00 00 00 00 00 00 00 00 00 00 00 00 00 00 00
       0.0 0.0 0.0 0.0
000180 00 00 00 00 00 00 00 00 00 00 00 00 00 00 00 00
       0.0 0.0 0.0 0.0
000190 00 00 00 00 00 00 00 00 00 00 00 00 00 00 00 00
       0.0 0.0 0.0 0.0
0001a0 00 00 00 00 00 00 00 00 00 00 00 00 00 00 00 00
       0.0 0.0 0.0 0.0
0001b0 00 00 00 00 00 00 00 00 00 00 00 00 00 00 00 00
       0.0 0.0 0.0 0.0
0001c0 00 00 00 00 00 00 00 00 00 00 00 00 00 00 00 00
       0.0 0.0 0.0 0.0
0001d0 00 00 00 00 00 00 00 00 00 00 00 00 00 00 00 00
       0.0 0.0 0.0 0.0
0001e0 00 00 00 00 00 00 00 00 00 00 00 00 00 00 00 00
       0.0 0.0 0.0 0.0
0001f0 00 00 00 00 00 00 00 00 00 00 00 00 00 00 00 00
       0.0 0.0 0.0 0.0
000200 00 00 00 00 00 00 00 00 00 00 00 00 00 00 00 00
       0.0 0.0 0.0 0.0
000210 00 00 00 00 00 00 00 00 00 00 00 00 00 00 00 00
       0.0 0.0 0.0 0.0
000220 00 00 00 00 00 00 00 00 00 00 00 00 00 00 00 00
       0.0 0.0 0.0 0.0
000230 00 00 00 00 00 00 00 00 00 00 00 00 00 00 00 00
       0.0 0.0 0.0 0.0
000240 00 00 00 00 00 00 00 00 00 00 00 00 00 00 00 00
       0.0 0.0 0.0 0.0
000250 00 00 00 00 00 00 00 00 00 00 00 00 00 00 00 00
       0.0 0.0 0.0 0.0
000260 00 00 00 00 00 00 00 00 00 00 00 00 00 00 00 00
       0.0 0.0 0.0 0.0
000270 00 00 00 00 00 00 00 00 00 00 00 00 00 00 00 00
       0.0 0.0 0.0 0.0
000280 00 00 00 00 00 00 00 00 00 00 00 00 00 00 00 00
       0.0 0.0 0.0 0.0
000290 00 00 00 00 00 00 00 00 00 00 00 00 00 00 00 00
       0.0 0.0 0.0 0.0
0002a0 00 00 00 00 00 00 00 00 00 00 00 00 00 00 00 00
       0.0 0.0 0.0 0.0
0002b0 00 00 00 00 00 00 00 00 00 00 00 00 00 00 00 00
       0.0 0.0 0.0 0.0
0002c0 00 00 00 00 00 00 00 00 00 00 00 00 00 00 00 00
       0.0 0.0 0.0 0.0
0002d0 00 00 00 00 00 00 00 00 00 00 00 00 00 00 00 00
       0.0 0.0 0.0 0.0
0002e0 00 00 00 00 00 00 00 00 00 00 00 00 00 00 00 00
       0.0 0.0 0.0 0.0
0002f0 00 00 00 00 00 00 00 00 00 00 00 00 00 00 00 00
       0.0 0.0 0.0 0.0
000300 00 00 00 00 00 00 00 00 00 00 00 00 00 00 00 00
       0.0 0.0 0.0 0.0
000310 00 00 00 00 00 00 00 00 00 00 00 00 00 00 00 00
       0.0 0.0 0.0 0.0
000320 00 00 00 00 00 00 00 00 00 00 00 00 00 00 00 00
       0.0 0.0 0.0 0.0
000330 00 00 00 00 00 00 00 00 00 00 00 00 00 00 00 00
       0.0 0.0 0.0 0.0
000340 00 00 00 00 00 00 00 00 00 00 00 00 00 00 00 00
       0.0 0.0 0.0 0.0
000350 00 00 00 00 00 00 00 00 00 00 00 00 00 00 00 00
       0.0 0.0 0.0 0.0
000360 00 00 00 00 00 00 00 00 00 00 00 00 00 00 00 00
       0.0 0.0 0.0 0.0
000370 00 00 00 00 00 00 00 00 00 00 00 00 00 00 00 00
       0.0 0.0 0.0 0.0
000380 00 00 00 00 00 00 00 00 00 00 00 00 00 00 00 00
       0.0 0.0 0.0 0.0
000390 00 00 00 00 00 00 00 00 00 00 00 00 00 00 00 00
       0.0 0.0 0.0 0.0
0003a0 00 00 00 00 00 00 00 00 00 00 00 00 00 00 00 00
       0.0 0.0 0.0 0.0
0003b0 00 00 00 00 00 00 00 00 00 00 00 00 00 00 00 00
       0.0 0.0 0.0 0.0
0003c0 00 00 00 00 00 00 00 00 00 00 00 00 00 00 00 00
       0.0 0.0 0.0 0.0
0003d0 00 00 00 00 00 00 00 00 00 00 00 00 00 00 00 00
       0.0 0.0 0.0 0.0
0003e0 00 00 00 00 00 00 00 00 00 00 00 00 00 00 00 00
       0.0 0.0 0.0 0.0
0003f0 00 00 00 00 00 00 00 00 00 00 00 00 00 00 00 00
       0.0 0.0 0.0 0.0

bn1d1.running_mean f4 [4080]
000000 00 00 00 00 00 00 00 00 00 00 00 00 00 00 00 00
       0.0 0.0 0.0 0.0
000010 00 00 00 00 00 00 00 00 00 00 00 00 00 00 00 00
       0.0 0.0 0.0 0.0
000020 00 00 00 00 00 00 00 00 00 00 00 00 00 00 00 00
       0.0 0.0 0.0 0.0
000030 00 00 00 00 00 00 00 00 00 00 00 00 00 00 00 00
       0.0 0.0 0.0 0.0
000040 00 00 00 00 00 00 00 00 00 00 00 00 00 00 00 00
       0.0 0.0 0.0 0.0
000050 00 00 00 00 00 00 00 00 00 00 00 00 00 00 00 00
       0.0 0.0 0.0 0.0
000060 00 00 00 00 00 00 00 00 00 00 00 00 00 00 00 00
       0.0 0.0 0.0 0.0
000070 00 00 00 00 00 00 00 00 00 00 00 00 00 00 00 00
       0.0 0.0 0.0 0.0
000080 00 00 00 00 00 00 00 00 00 00 00 00 00 00 00 00
       0.0 0.0 0.0 0.0
000090 00 00 00 00 00 00 00 00 00 00 00 00 00 00 00 00
       0.0 0.0 0.0 0.0
0000a0 00 00 00 00 00 00 00 00 00 00 00 00 00 00 00 00
       0.0 0.0 0.0 0.0
0000b0 00 00 00 00 00 00 00 00 00 00 00 00 00 00 00 00
       0.0 0.0 0.0 0.0
0000c0 00 00 00 00 00 00 00 00 00 00 00 00 00 00 00 00
       0.0 0.0 0.0 0.0
0000d0 00 00 00 00 00 00 00 00 00 00 00 00 00 00 00 00
       0.0 0.0 0.0 0.0
0000e0 00 00 00 00 00 00 00 00 00 00 00 00 00 00 00 00
       0.0 0.0 0.0 0.0
0000f0 00 00 00 00 00 00 00 00 00 00 00 00 00 00 00 00
       0.0 0.0 0.0 0.0
000100 00 00 00 00 00 00 00 00 00 00 00 00 00 00 00 00
       0.0 0.0 0.0 0.0
000110 00 00 00 00 00 00 00 00 00 00 00 00 00 00 00 00
       0.0 0.0 0.0 0.0
000120 00 00 00 00 00 00 00 00 00 00 00 00 00 00 00 00
       0.0 0.0 0.0 0.0
000130 00 00 00 00 00 00 00 00 00 00 00 00 00 00 00 00
       0.0 0.0 0.0 0.0
000140 00 00 00 00 00 00 00 00 00 00 00 00 00 00 00 00
       0.0 0.0 0.0 0.0
000150 00 00 00 00 00 00 00 00 00 00 00 00 00 00 00 00
       0.0 0.0 0.0 0.0
000160 00 00 00 00 00 00 00 00 00 00 00 00 00 00 00 00
       0.0 0.0 0.0 0.0
000170 00 00 00 00 00 00 00 00 00 00 00 00 00 00 00 00
       0.0 0.0 0.0 0.0
000180 00 00 00 00 00 00 00 00 00 00 00 00 00 00 00 00
       0.0 0.0 0.0 0.0
000190 00 00 00 00 00 00 00 00 00 00 00 00 00 00 00 00
       0.0 0.0 0.0 0.0
0001a0 00 00 00 00 00 00 00 00 00 00 00 00 00 00 00 00
       0.0 0.0 0.0 0.0
0001b0 00 00 00 00 00 00 00 00 00 00 00 00 00 00 00 00
       0.0 0.0 0.0 0.0
0001c0 00 00 00 00 00 00 00 00 00 00 00 00 00 00 00 00
       0.0 0.0 0.0 0.0
0001d0 00 00 00 00 00 00 00 00 00 00 00 00 00 00 00 00
       0.0 0.0 0.0 0.0
0001e0 00 00 00 00 00 00 00 00 00 00 00 00 00 00 00 00
       0.0 0.0 0.0 0.0
0001f0 00 00 00 00 00 00 00 00 00 00 00 00 00 00 00 00
       0.0 0.0 0.0 0.0
000200 00 00 00 00 00 00 00 00 00 00 00 00 00 00 00 00
       0.0 0.0 0.0 0.0
000210 00 00 00 00 00 00 00 00 00 00 00 00 00 00 00 00
       0.0 0.0 0.0 0.0
000220 00 00 00 00 00 00 00 00 00 00 00 00 00 00 00 00
       0.0 0.0 0.0 0.0
000230 00 00 00 00 00 00 00 00 00 00 00 00 00 00 00 00
       0.0 0.0 0.0 0.0
000240 00 00 00 00 00 00 00 00 00 00 00 00 00 00 00 00
       0.0 0.0 0.0 0.0
000250 00 00 00 00 00 00 00 00 00 00 00 00 00 00 00 00
       0.0 0.0 0.0 0.0
000260 00 00 00 00 00 00 00 00 00 00 00 00 00 00 00 00
       0.0 0.0 0.0 0.0
000270 00 00 00 00 00 00 00 00 00 00 00 00 00 00 00 00
       0.0 0.0 0.0 0.0
000280 00 00 00 00 00 00 00 00 00 00 00 00 00 00 00 00
       0.0 0.0 0.0 0.0
000290 00 00 00 00 00 00 00 00 00 00 00 00 00 00 00 00
       0.0 0.0 0.0 0.0
0002a0 00 00 00 00 00 00 00 00 00 00 00 00 00 00 00 00
       0.0 0.0 0.0 0.0
0002b0 00 00 00 00 00 00 00 00 00 00 00 00 00 00 00 00
       0.0 0.0 0.0 0.0
0002c0 00 00 00 00 00 00 00 00 00 00 00 00 00 00 00 00
       0.0 0.0 0.0 0.0
0002d0 00 00 00 00 00 00 00 00 00 00 00 00 00 00 00 00
       0.0 0.0 0.0 0.0
0002e0 00 00 00 00 00 00 00 00 00 00 00 00 00 00 00 00
       0.0 0.0 0.0 0.0
0002f0 00 00 00 00 00 00 00 00 00 00 00 00 00 00 00 00
       0.0 0.0 0.0 0.0
000300 00 00 00 00 00 00 00 00 00 00 00 00 00 00 00 00
       0.0 0.0 0.0 0.0
000310 00 00 00 00 00 00 00 00 00 00 00 00 00 00 00 00
       0.0 0.0 0.0 0.0
000320 00 00 00 00 00 00 00 00 00 00 00 00 00 00 00 00
       0.0 0.0 0.0 0.0
000330 00 00 00 00 00 00 00 00 00 00 00 00 00 00 00 00
       0.0 0.0 0.0 0.0
000340 00 00 00 00 00 00 00 00 00 00 00 00 00 00 00 00
       0.0 0.0 0.0 0.0
000350 00 00 00 00 00 00 00 00 00 00 00 00 00 00 00 00
       0.0 0.0 0.0 0.0
000360 00 00 00 00 00 00 00 00 00 00 00 00 00 00 00 00
       0.0 0.0 0.0 0.0
000370 00 00 00 00 00 00 00 00 00 00 00 00 00 00 00 00
       0.0 0.0 0.0 0.0
000380 00 00 00 00 00 00 00 00 00 00 00 00 00 00 00 00
       0.0 0.0 0.0 0.0
000390 00 00 00 00 00 00 00 00 00 00 00 00 00 00 00 00
       0.0 0.0 0.0 0.0
0003a0 00 00 00 00 00 00 00 00 00 00 00 00 00 00 00 00
       0.0 0.0 0.0 0.0
0003b0 00 00 00 00 00 00 00 00 00 00 00 00 00 00 00 00
       0.0 0.0 0.0 0.0
0003c0 00 00 00 00 00 00 00 00 00 00 00 00 00 00 00 00
       0.0 0.0 0.0 0.0
0003d0 00 00 00 00 00 00 00 00 00 00 00 00 00 00 00 00
       0.0 0.0 0.0 0.0
0003e0 00 00 00 00 00 00 00 00 00 00 00 00 00 00 00 00
       0.0 0.0 0.0 0.0
0003f0 00 00 00 00 00 00 00 00 00 00 00 00 00 00 00 00
       0.0 0.0 0.0 0.0

bn1d1.running_var f4 [4080]
000000 00 00 80 3f 00 00 80 3f 00 00 80 3f 00 00 80 3f
       1.0 1.0 1.0 1.0
000010 00 00 80 3f 00 00 80 3f 00 00 80 3f 00 00 80 3f
       1.0 1.0 1.0 1.0
000020 00 00 80 3f 00 00 80 3f 00 00 80 3f 00 00 80 3f
       1.0 1.0 1.0 1.0
000030 00 00 80 3f 00 00 80 3f 00 00 80 3f 00 00 80 3f
       1.0 1.0 1.0 1.0
000040 00 00 80 3f 00 00 80 3f 00 00 80 3f 00 00 80 3f
       1.0 1.0 1.0 1.0
000050 00 00 80 3f 00 00 80 3f 00 00 80 3f 00 00 80 3f
       1.0 1.0 1.0 1.0
000060 00 00 80 3f 00 00 80 3f 00 00 80 3f 00 00 80 3f
       1.0 1.0 1.0 1.0
000070 00 00 80 3f 00 00 80 3f 00 00 80 3f 00 00 80 3f
       1.0 1.0 1.0 1.0
000080 00 00 80 3f 00 00 80 3f 00 00 80 3f 00 00 80 3f
       1.0 1.0 1.0 1.0
000090 00 00 80 3f 00 00 80 3f 00 00 80 3f 00 00 80 3f
       1.0 1.0 1.0 1.0
0000a0 00 00 80 3f 00 00 80 3f 00 00 80 3f 00 00 80 3f
       1.0 1.0 1.0 1.0
0000b0 00 00 80 3f 00 00 80 3f 00 00 80 3f 00 00 80 3f
       1.0 1.0 1.0 1.0
0000c0 00 00 80 3f 00 00 80 3f 00 00 80 3f 00 00 80 3f
       1.0 1.0 1.0 1.0
0000d0 00 00 80 3f 00 00 80 3f 00 00 80 3f 00 00 80 3f
       1.0 1.0 1.0 1.0
0000e0 00 00 80 3f 00 00 80 3f 00 00 80 3f 00 00 80 3f
       1.0 1.0 1.0 1.0
0000f0 00 00 80 3f 00 00 80 3f 00 00 80 3f 00 00 80 3f
       1.0 1.0 1.0 1.0
000100 00 00 80 3f 00 00 80 3f 00 00 80 3f 00 00 80 3f
       1.0 1.0 1.0 1.0
000110 00 00 80 3f 00 00 80 3f 00 00 80 3f 00 00 80 3f
       1.0 1.0 1.0 1.0
000120 00 00 80 3f 00 00 80 3f 00 00 80 3f 00 00 80 3f
       1.0 1.0 1.0 1.0
000130 00 00 80 3f 00 00 80 3f 00 00 80 3f 00 00 80 3f
       1.0 1.0 1.0 1.0
000140 00 00 80 3f 00 00 80 3f 00 00 80 3f 00 00 80 3f
       1.0 1.0 1.0 1.0
000150 00 00 80 3f 00 00 80 3f 00 00 80 3f 00 00 80 3f
       1.0 1.0 1.0 1.0
000160 00 00 80 3f 00 00 80 3f 00 00 80 3f 00 00 80 3f
       1.0 1.0 1.0 1.0
000170 00 00 80 3f 00 00 80 3f 00 00 80 3f 00 00 80 3f
       1.0 1.0 1.0 1.0
000180 00 00 80 3f 00 00 80 3f 00 00 80 3f 00 00 80 3f
       1.0 1.0 1.0 1.0
000190 00 00 80 3f 00 00 80 3f 00 00 80 3f 00 00 80 3f
       1.0 1.0 1.0 1.0
0001a0 00 00 80 3f 00 00 80 3f 00 00 80 3f 00 00 80 3f
       1.0 1.0 1.0 1.0
0001b0 00 00 80 3f 00 00 80 3f 00 00 80 3f 00 00 80 3f
       1.0 1.0 1.0 1.0
0001c0 00 00 80 3f 00 00 80 3f 00 00 80 3f 00 00 80 3f
       1.0 1.0 1.0 1.0
0001d0 00 00 80 3f 00 00 80 3f 00 00 80 3f 00 00 80 3f
       1.0 1.0 1.0 1.0
0001e0 00 00 80 3f 00 00 80 3f 00 00 80 3f 00 00 80 3f
       1.0 1.0 1.0 1.0
0001f0 00 00 80 3f 00 00 80 3f 00 00 80 3f 00 00 80 3f
       1.0 1.0 1.0 1.0
000200 00 00 80 3f 00 00 80 3f 00 00 80 3f 00 00 80 3f
       1.0 1.0 1.0 1.0
000210 00 00 80 3f 00 00 80 3f 00 00 80 3f 00 00 80 3f
       1.0 1.0 1.0 1.0
000220 00 00 80 3f 00 00 80 3f 00 00 80 3f 00 00 80 3f
       1.0 1.0 1.0 1.0
000230 00 00 80 3f 00 00 80 3f 00 00 80 3f 00 00 80 3f
       1.0 1.0 1.0 1.0
000240 00 00 80 3f 00 00 80 3f 00 00 80 3f 00 00 80 3f
       1.0 1.0 1.0 1.0
000250 00 00 80 3f 00 00 80 3f 00 00 80 3f 00 00 80 3f
       1.0 1.0 1.0 1.0
000260 00 00 80 3f 00 00 80 3f 00 00 80 3f 00 00 80 3f
       1.0 1.0 1.0 1.0
000270 00 00 80 3f 00 00 80 3f 00 00 80 3f 00 00 80 3f
       1.0 1.0 1.0 1.0
000280 00 00 80 3f 00 00 80 3f 00 00 80 3f 00 00 80 3f
       1.0 1.0 1.0 1.0
000290 00 00 80 3f 00 00 80 3f 00 00 80 3f 00 00 80 3f
       1.0 1.0 1.0 1.0
0002a0 00 00 80 3f 00 00 80 3f 00 00 80 3f 00 00 80 3f
       1.0 1.0 1.0 1.0
0002b0 00 00 80 3f 00 00 80 3f 00 00 80 3f 00 00 80 3f
       1.0 1.0 1.0 1.0
0002c0 00 00 80 3f 00 00 80 3f 00 00 80 3f 00 00 80 3f
       1.0 1.0 1.0 1.0
0002d0 00 00 80 3f 00 00 80 3f 00 00 80 3f 00 00 80 3f
       1.0 1.0 1.0 1.0
0002e0 00 00 80 3f 00 00 80 3f 00 00 80 3f 00 00 80 3f
       1.0 1.0 1.0 1.0
0002f0 00 00 80 3f 00 00 80 3f 00 00 80 3f 00 00 80 3f
       1.0 1.0 1.0 1.0
000300 00 00 80 3f 00 00 80 3f 00 00 80 3f 00 00 80 3f
       1.0 1.0 1.0 1.0
000310 00 00 80 3f 00 00 80 3f 00 00 80 3f 00 00 80 3f
       1.0 1.0 1.0 1.0
000320 00 00 80 3f 00 00 80 3f 00 00 80 3f 00 00 80 3f
       1.0 1.0 1.0 1.0
000330 00 00 80 3f 00 00 80 3f 00 00 80 3f 00 00 80 3f
       1.0 1.0 1.0 1.0
000340 00 00 80 3f 00 00 80 3f 00 00 80 3f 00 00 80 3f
       1.0 1.0 1.0 1.0
000350 00 00 80 3f 00 00 80 3f 00 00 80 3f 00 00 80 3f
       1.0 1.0 1.0 1.0
000360 00 00 80 3f 00 00 80 3f 00 00 80 3f 00 00 80 3f
       1.0 1.0 1.0 1.0
000370 00 00 80 3f 00 00 80 3f 00 00 80 3f 00 00 80 3f
       1.0 1.0 1.0 1.0
000380 00 00 80 3f 00 00 80 3f 00 00 80 3f 00 00 80 3f
       1.0 1.0 1.0 1.0
000390 00 00 80 3f 00 00 80 3f 00 00 80 3f 00 00 80 3f
       1.0 1.0 1.0 1.0
0003a0 00 00 80 3f 00 00 80 3f 00 00 80 3f 00 00 80 3f
       1.0 1.0 1.0 1.0
0003b0 00 00 80 3f 00 00 80 3f 00 00 80 3f 00 00 80 3f
       1.0 1.0 1.0 1.0
0003c0 00 00 80 3f 00 00 80 3f 00 00 80 3f 00 00 80 3f
       1.0 1.0 1.0 1.0
0003d0 00 00 80 3f 00 00 80 3f 00 00 80 3f 00 00 80 3f
       1.0 1.0 1.0 1.0
0003e0 00 00 80 3f 00 00 80 3f 00 00 80 3f 00 00 80 3f
       1.0 1.0 1.0 1.0
0003f0 00 00 80 3f 00 00 80 3f 00 00 80 3f 00 00 80 3f
       1.0 1.0 1.0 1.0

bn2d1.weight f4 [136]
000000 99 e0 89 3f 71 97 3e 3f ee 94 c1 3f fa c1 87 3f
       1.0771667 0.7444983 1.5123575 1.0606072
000010 7b 18 69 3f 65 1c c6 3f a5 1d 9d 3f 90 01 83 3f
       0.9105298 1.5477415 1.2274672 1.0234852
000020 04 ab e8 3f a6 96 ec 3e a5 57 a7 3f ec 3b 8a 3f
       1.817719 0.46208686 1.3073622 1.0799537
000030 8f 84 85 3f 38 89 32 3f 68 16 81 3f 49 6b 17 3f
       1.0431079 0.6974063 1.0084963 0.5914808
000040 7f 54 97 3f 57 5b be 3f 49 4e 8f 3f 02 3a c1 3e
       1.1822661 1.4871625 1.1195766 0.3773957
000050 c8 f0 b0 3f f5 5e 9e 3f 47 48 d5 3f 15 af c0 3f
       1.3823481 1.2372729 1.6662682 1.5053431
000060 92 4d 8f 3f d4 b8 bc 3f 29 2a f8 3f 71 65 c0 39
       1.1195548 1.4743905 1.9387866 0.00036696673
000070 6f 95 6a 3f 95 7c 82 3f 2d 51 bd 3f 04 53 a4 3f
       0.9163427 1.019427 1.4790398 1.2837834
000080 1c 25 8f 3f 63 11 81 3f 07 2e 8a 3f 68 8d 77 3f
       1.11832 1.0083431 1.0795296 0.96700144
000090 6a 1f b9 3f 17 d5 bc 3f 3c e6 9c 3f 9d 10 5a 3e
       1.4462712 1.475253 1.2257762 0.212954
0000a0 6e 69 80 3f fe aa 8d 3f 3c 9d b2 3f 51 4d 95 3f
       1.0032175 1.1067808 1.3954234 1.166422
0000b0 e3 29 e2 3f 37 da 8f 3f 28 36 85 3f b9 71 b9 3f
       1.7669033 1.1238469 1.0407152 1.448783
0000c0 1e d8 a5 3f a9 a5 ff 3f 8d 84 c7 3f 5e 80 20 3e
       1.2956579 1.997243 1.5587326 0.15673968
0000d0 7d 64 91 3f 41 a6 de 3f 38 8b 9c 3f 7d 62 a2 3f
       1.1358792 1.7394487 1.2229986 1.2686306
0000e0 63 33 b4 3f 28 e8 a2 3f 11 d4 95 3f ed ee cf 3f
       1.4078182 1.2727098 1.1705343 1.6244789
0000f0 f0 01 8c 3f 8b 01 e9 3e c4 58 bb 3f 52 0f b9 3f
       1.0938091 0.4550899 1.4636464 1.44578
000100 e4 ab 5f 3f c3 66 92 3f 02 e1 52 3f f6 7f 8e 3f
       0.8737166 1.143761 0.82374585 1.11328
000110 c9 28 bd 3f b4 4f a6 3f c7 24 6d 3f 53 aa 9b 3f
       1.4778072 1.2993073 0.9263424 1.2161354
000120 6b 09 92 3f 5a ca bd 3f a8 56 5c 3f a5 42 a3 3f
       1.1409124 1.4827378 0.86069727 1.2754713
000130 e3 6d 8c 3f 41 1f c8 3f 2f 07 af 3f 04 36 8a 3f
       1.0971035 1.5634538 1.3674067 1.0797734
000140 0f 7b d9 3f fd c4 9e be 2f 51 b2 3f 13 e9 0a 3f
       1.699068 -0.31009665 1.3931025 0.54261893
000150 49 b9 9a 3f f8 25 67 3f 14 50 3f 3f b7 cc b0 3f
       1.2087795 0.9029231 0.74731565 1.3812474
000160 8f ca e8 3f 8e fa 8a 3f 64 e3 83 3f 39 1a 87 3f
       1.8186816 1.0857713 1.0303769 1.0554878
000170 78 e0 b7 3f 7d 64 82 3f 1c ab 91 3f b6 10 87 3f
       1.4365377 1.0186917 1.1380343 1.0551975
000180 9d aa 73 3f 22 4c 9b 3f c2 89 a7 3f 67 38 59 3f
       0.9518221 1.2132609 1.3088915 0.8485169
000190 43 6d aa 3f d2 8e 4a 3f 53 43 8f 3f c7 35 b4 3f
       1.3314594 0.79124177 1.1192421 1.4078912
0001a0 01 f5 ab 3f ce d7 ba 3f 4d 2e 7a 3f 6f a4 90 3f
       1.3434144 1.4597108 0.977269 1.1300181
0001b0 05 7b 72 3f a2 7d aa 3f b7 e2 a7 3f 3b d5 72 3f
       0.9471896 1.331959 1.3116063 0.94856614
0001c0 a7 dd 9b 3f ca 3c 87 3f 31 f5 8e 3f 29 6b 56 3f
       1.2177018 1.0565426 1.1168576 0.83757263
0001d0 02 ee 88 3f ce 1d 86 3f e0 1c c3 3f a9 7c c4 3f
       1.0697634 1.0477846 1.5243187 1.5350543
0001e0 a3 ae 7e 3f d0 11 c1 3f 9e 40 78 3f 1d 7b a6 3f
       0.99485224 1.5083561 0.969736 1.3006321
0001f0 23 ba e1 3f e6 b5 e2 3f 8c a2 9f 3f a5 36 be 3f
       1.763493 1.7711761 1.247148 1.4860426
000200 8e 7f c3 3f ed ec 80 3f c9 fc 0b bb b2 4b 42 3f
       1.5273302 1.0072304 -0.0021360388 0.7589675
000210 fd ae a0 3f ce d6 85 3f 86 e2 ab 3f fc 1a db 3f
       1.2553402 1.0456178 1.3428504 1.711761

bn2d1.bias f4 [136]
000000 28 13 94 be 50 b7 9b be 85 19 9f be d6 0a 15 be
       -0.28920865 -0.30413294 -0.31074157 -0.14554915
000010 44 4b b6 be 34 90 09 bc bf c7 a1 be 53 f4 f3 be
       -0.35604298 -0.008396197 -0.31597707 -0.47647342
000020 41 b5 48 bb 87 c1 9b be 93 b8 d2 be 28 fb 9f be
       -0.0030625614 -0.30421087 -0.41156444 -0.31246305
000030 5a 83 04 bf 57 63 14 bd 4c e3 c2 be 46 c5 ee be
       -0.51762927 -0.03622755 -0.3806404 -0.46634883
000040 67 81 ec be a4 bc 55 be 6e 26 5d be 96 d0 0a 3f
       -0.46192476 -0.20872742 -0.21596691 0.54224527
000050 7c ef a3 be d6 ad a5 be da 6b 60 be 64 74 38 be
       -0.3201865 -0.3235919 -0.21916142 -0.1801315
000060 e4 08 b1 3e 9d ba 5b be 21 71 d3 be 88 74 bf bc
       0.34577096 -0.21457906 -0.41297248 -0.023370996
000070 9a 31 2c be 43 38 a3 be cd eb fd be 89 b6 d9 be
       -0.16815796 -0.31878862 -0.49593964 -0.42522076
000080 e2 10 b5 be db bc 76 be 9f 22 0a 3f 65 51 90 be
       -0.35364443 -0.2409548 0.5395908 -0.281871
000090 1a 7f 03 bb a7 6a cd be 23 f7 b5 be 7e 54 6a 3f
       -0.0020064772 -0.40120432 -0.35540113 0.91535175
0000a0 97 01 94 be 59 79 b5 be c4 90 9c be f3 05 65 be
       -0.28907463 -0.35444143 -0.30579197 -0.2236555
0000b0 26 30 f4 be 69 cd 00 be e3 df bd bd 12 98 9c be
       -0.47692984 -0.12578358 -0.09271219 -0.3058477
0000c0 cb 6e c9 be 87 e9 98 be 9d 1b c1 3d 65 e8 ff be
       -0.3934234 -0.29865667 0.09429095 -0.4998199
0000d0 bd b9 9f be 51 f6 25 be 7d b6 c4 be 89 23 82 be
       -0.31196395 -0.16207244 -0.38420478 -0.25417736
0000e0 53 88 94 be 35 9b 93 be e1 41 47 be 77 e1 a9 be
       -0.29010257 -0.2882935 -0.19458725 -0.3317983
0000f0 57 e8 1a be 0f 18 28 bf 28 5b d7 be e8 ab 8f be
       -0.15127693 -0.6566171 -0.42061734 -0.28060842
000100 fe b2 e9 be 61 8d 11 bb 20 27 95 be 2c c4 27 be
       -0.45644373 -0.0022209513 -0.29131413 -0.16383427
000110 26 03 40 be af 99 4b be 9b 81 a9 be db bf 21 be
       -0.18751201 -0.19882844 -0.33106694 -0.15795843
000120 c9 cf c8 be d1 7e 83 3d 59 df 05 be 47 90 4c be
       -0.39221027 0.06420673 -0.13073482 -0.19976912
000130 1f 3d b5 be 87 51 a3 be 2f ba c6 be da c1 7e 3c
       -0.35398194 -0.31898138 -0.38813922 0.0155491475
000140 6d 28 6b 3e e4 b6 93 3f 0a 38 da be 17 cf 8b bd
       0.2296464 1.1540189 -0.4262088 -0.06826609
000150 bb 19 77 bd 1e 6d 57 be 13 f2 bf be fb 97 69 bd
       -0.060327273 -0.21037719 -0.37489375 -0.057029705
000160 ca 3d 27 be e2 07 f5 be e5 7a e5 bd 54 d3 04 be
       -0.16332164 -0.47857577 -0.11205081 -0.1297124
000170 69 0d ca be 6d ea 4c be aa 5a 04 bf c1 c7 86 be
       -0.39463356 -0.20011301 -0.5170084 -0.26324275
000180 b0 b8 8c be aa dd 04 bf bc 80 c3 bd e2 76 8e be
       -0.27484655 -0.5190073 -0.095460385 -0.27825075
000190 f1 40 a0 be 5b bd a8 be cb 63 22 be 02 ec 36 be
       -0.31299546 -0.32956967 -0.1585838 -0.17863467
0001a0 71 69 e1 bc d2 00 3f 3d 53 57 80 bd f1 d2 32 be
       -0.027516099 0.04663164 -0.06266656 -0.1746328
0001b0 9b 19 e3 be 3a 3b a2 be 2c b6 d7 3d 43 69 24 bf
       -0.44355473 -0.3168581 0.105327934 -0.64223117
0001c0 93 4c 53 be 3d 76 e9 be 21 1b 5d be f2 7a 1a be
       -0.2063468 -0.4559802 -0.2159238 -0.15085962
0001d0 98 04 23 3e f3 4e 7d be 15 1d c2 be 49 3f 01 be
       0.15919721 -0.24737148 -0.37912813 -0.12621798
0001e0 9b ab d6 be d8 ba aa be cd a3 53 be ee ab 93 be
       -0.419278 -0.33345675 -0.20667954 -0.2884211
0001f0 19 d5 87 be d1 99 e3 be ee 90 94 be 30 c3 f0 be
       -0.26529768 -0.4445329 -0.29016823 -0.47023916
000200 d9 3d 44 be 89 6f 05 be 06 a9 86 bd f8 c9 43 bf
       -0.19164218 -0.13030829 -0.065752074 -0.76480055
000210 51 81 0c be 37 7d 80 3d 1a 55 26 be 83 51 03 bf
       -0.13721205 0.06273883 -0.16243401 -0.5129625

bn2d1.running_mean f4 [136]
000000 bc 83 18 bc 73 f1 03 bc d3 b1 c9 bb 00 6f 90 bb
       -0.009308752 -0.008053171 -0.0061552315 -0.0044077635
000010 23 9d 54 bc f1 71 11 3d 45 bf b0 3c e4 5c d3 bc
       -0.012976917 0.035509054 0.02157558 -0.02580113
000020 52 84 24 3c 3f be a5 3c 15 88 35 bc 61 d9 9a bc
       0.010041313 0.020232318 -0.011079808 -0.018902482
000030 47 1d 9e 3b 66 91 8d 38 e5 61 4b 3c f8 38 b0 3b
       0.0048252675 6.7504865e-05 0.012413477 0.005377885
000040 af f6 98 3c 89 a9 0e 3c 9a a2 19 39 6c 98 00 3d
       0.018672315 0.0087074125 0.00014651791 0.03139536
000050 8a da 3a 3c 4f 84 b3 bb 5a ba b5 3c d2 18 5d bb
       0.011404643 -0.005478419 0.022183586 -0.0033736718
000060 b4 99 96 3b 0e 37 06 3c df 21 5c bc 26 91 d7 3a
       0.0045959596 0.008191837 -0.01343581 0.0016446456
000070 2e c8 04 3c 14 be 17 3d cd 1f 0e bc b5 12 5b bc
       0.008104367 0.037046507 -0.008674574 -0.013371159
000080 61 e4 04 bc fb 33 7b 3c d3 83 f7 3b 1a 11 33 3c
       -0.00811109 0.015332217 0.0075535565 0.01092937
000090 55 c2 10 3a bd 95 1a ba 11 82 1a bd 23 62 fc 3b
       0.0005522122 -0.00058969465 -0.037721697 0.0077021285
0000a0 4f 2f 17 3c 87 45 8e 3c 36 b3 9b bb ee 47 76 3c
       0.009227588 0.017367138 -0.004751588 0.015031798
0000b0 03 f9 08 3b fd 56 50 3c 01 16 8b 3c 0c 78 91 bc
       0.0020900376 0.012716052 0.016978266 -0.017757438
0000c0 06 a7 b5 3c 98 43 ab bb 2d f0 e0 bc 5c 98 b4 bc
       0.02217437 -0.0052265637 -0.027458275 -0.022045307
0000d0 d2 e1 a1 bc 78 42 35 3c b4 3e 5d 3c e6 6e e5 ba
       -0.019761 0.011063211 0.013503719 -0.0017504364
0000e0 17 e5 8a 3c f2 cd e4 3a d2 e5 8e 3b 0e 42 15 bc
       0.016954942 0.0017456396 0.004360893 -0.009109987
0000f0 a9 bc d5 3b 41 eb 9d bc 2e d4 d4 bc 92 a4 5a bb
       0.006522734 -0.019277217 -0.025980081 -0.0033362252
000100 19 b4 d2 bc a2 d4 02 3d 9f 52 bb bc d8 ea 1f bd
       -0.025720643 0.031941064 -0.022866545 -0.039042324
000110 aa 6e ae 3b c8 eb eb bc 28 0e e2 bc 3c fe 81 3b
       0.005323251 -0.028798953 -0.02759464 0.0039670747
000120 e1 41 42 bc 5e 8c af 3c 78 61 b9 ba e3 31 3a 3c
       -0.011856527 0.021429237 -0.0014143428 0.011364433
000130 e8 9d 6a 3b bd cb 2f 3b e6 74 02 3c e0 c3 21 bb
       0.0035799686 0.0026824318 0.007962441 -0.00246834
000140 6f 95 92 3c cd de ee b8 4a 87 1d bd 35 a1 82 bb
       0.017893521 -0.00011390224 -0.0384591 -0.0039865025
000150 46 a2 5d bb 4c 4e 18 3c a7 db 8c bc 70 c7 94 bc
       -0.0033818646 0.009296011 -0.017194582 -0.018161505
000160 3f fc 18 3b 82 15 0a 3d 03 68 10 bc b1 e1 58 bb
       0.002334371 0.033711918 -0.008813861 -0.0033093507
000170 be a2 58 3c 2b a0 a5 3c cc 75 21 3c ec 01 ad 3c
       0.0132223945 0.020217976 0.009854745 0.02111908
000180 48 14 8c 3c 8a be 05 bd 08 a1 7a bb de 11 26 bc
       0.017099515 -0.032652415 -0.0038242955 -0.010136096
000190 bf e4 86 3c 8c aa c2 bb 5f 31 07 bc ae 55 98 3c
       0.016466497 -0.005940741 -0.008251517 0.018595543
0001a0 14 8a 39 bc 7e 7d 28 bc 34 25 18 3a d0 4b 41 b9
       -0.011324424 -0.010283826 0.00058038835 -0.00018434157
0001b0 43 f0 7a 3a 30 37 cb 3b 7c 3e 4b bc 83 06 92 bc
       0.0009572545 0.006201647 -0.012405034 -0.01782537
0001c0 47 87 8b 3c 7c ad d3 bc a3 2f 60 3c 99 4b d7 3c
       0.017032279 -0.02583956 0.0136832325 0.026281165
0001d0 01 ed e2 3b c4 ab ab bb c0 23 c8 bc 08 91 3b 3c
       0.0069252257 -0.005238982 -0.02443111 0.011448152
0001e0 08 58 96 b9 12 fc 8d 3c 1a 06 c3 bc a8 47 ee 3c
       -0.00028675818 0.01733211 -0.02380662 0.029086903
0001f0 09 e5 e7 3b 60 5d 9c bc 06 a6 ef 3b 2f e9 a5 3b
       0.0070768637 -0.019087493 0.0073134927 0.005063198
000200 54 4c e0 bc d9 e7 31 3c 77 38 10 3a da a3 f1 3b
       -0.027380146 0.010858499 0.0005501578 0.007374269
000210 47 af 84 bc cf aa fa bc 45 b9 44 bc df 9b 69 3b
       -0.01619686 -0.030599026 -0.012007062 0.0035645885

bn2d1.running_var f4 [136]
000000 45 4b 4e 40 ed 92 4a 40 da 90 4c 40 d9 61 4c 40
       3.223344 3.1652176 3.196341 3.1934721
000010 82 fe 39 40 2f 53 58 40 a2 cd 45 40 89 48 53 40
       2.906159 3.3800771 3.0906758 3.3013022
000020 39 b6 50 40 49 f5 2b 40 3c 7a 44 40 e5 1b 5a 40
       3.261122 2.686846 3.0699606 3.4079525
000030 1d d1 41 40 c4 50 78 40 53 8f 3d 40 92 73 34 40
       3.0283883 3.8799295 2.9618728 2.8195539
000040 f0 da 69 40 83 4a 55 40 bb 72 5f 40 c0 18 43 40
       3.653988 3.3326728 3.4913776 3.0483856
000050 e4 b4 58 40 04 8c 41 40 3b 87 47 40 3e f7 45 40
       3.3860407 3.0241709 3.1176288 3.0932155
000060 de 5c 4b 40 40 bd 5b 40 a8 83 67 40 70 33 b5 3f
       3.1775432 3.433426 3.6174107 1.4156322
000070 15 df 49 40 13 7a 4e 40 40 8a 5a 40 91 f4 50 40
       3.1542408 3.2262008 3.414688 3.2649271
000080 25 3f 63 40 f0 2a 41 40 cb c3 4d 40 d4 ee 51 40
       3.550729 3.0182457 3.2150753 3.280202
000090 0f 36 4e 40 eb e4 4d 40 e9 9b 35 40 b3 96 39 40
       3.2220495 3.217097 2.837641 2.899823
0000a0 47 3b 31 40 bc 67 52 40 ab ca 52 40 43 8c 33 40
       2.769243 3.2875814 3.2936199 2.805436
0000b0 9d 47 79 40 6a 31 50 40 0c f5 48 40 c4 f1 67 40
       3.894996 3.253016 3.1399565 3.6241312
0000c0 4c 98 51 40 81 99 54 40 d9 9c 68 40 0b 89 21 40
       3.2749205 3.3218691 3.6345732 2.5239894
0000d0 5b 91 3d 40 0b 6f 54 40 20 91 3d 40 f4 37 50 40
       2.9619968 3.3192775 2.9619827 3.253415
0000e0 ea 87 42 40 cf 06 3d 40 cd 63 4a 40 cb ee 63 40
       3.0395455 2.9535406 3.1623414 3.5614498
0000f0 48 b7 3d 40 ec 9a 31 40 cf d4 43 40 db 93 64 40
       2.9643116 2.7750807 3.0598638 3.5715244
000100 d6 37 4a 40 e7 4d 52 40 72 7e 39 40 40 ed 6c 40
       3.159658 3.2860048 2.8983426 3.7019806
000110 08 e1 57 40 de cf 58 40 b7 21 44 40 1e 82 4d 40
       3.3731098 3.3876872 3.0645578 3.2110667
000120 ac 21 3b 40 66 6a 62 40 a6 61 55 40 88 78 4f 40
       2.9239302 3.537744 3.334085 3.2417316
000130 54 88 49 40 06 5e 5d 40 57 aa 4f 40 69 59 57 40
       3.1489458 3.4588637 3.2447717 3.3648322
000140 a3 c7 57 40 cb 5a 2a 40 c6 dd 4f 40 e7 0f 35 40
       3.3715599 2.6617916 3.247911 2.8290956
000150 71 7e 53 40 e1 1d 44 40 84 5d 3b 40 ab 51 64 40
       3.3045924 3.0643237 2.9275827 3.5674846
000160 0f 6c 66 40 a1 29 49 40 53 e0 63 40 54 82 57 40
       3.6003454 3.1431658 3.5605667 3.3673296
000170 52 c0 41 40 99 02 46 40 c5 fe 50 40 f8 d4 4d 40
       3.0273633 3.0939085 3.26555 3.2161236
000180 fc 5b 40 40 c3 d7 5a 40 9f b6 54 40 7e d3 39 40
       3.0056143 3.419419 3.3236463 2.9035335
000190 48 29 4e 40 33 88 43 40 26 48 4c 40 5b 3d 4e 40
       3.2212696 3.055188 3.1919036 3.2224948
0001a0 48 c9 57 40 29 1b 5b 40 74 fb 4d 40 bb 78 44 40
       3.3716602 3.4235327 3.2184725 3.0698688
0001b0 9d dd 5c 40 60 cc 42 40 a3 cc 4e 40 ff e0 3c 40
       3.4510262 3.043724 3.23124 2.9512327
0001c0 b0 2a 5a 40 ae b1 5f 40 77 2a 50 40 53 28 49 40
       3.4088554 3.4952197 3.2525918 3.1430862
0001d0 45 4e 56 40 7a 0b 5e 40 00 b5 48 40 0b 06 5f 40
       3.3485272 3.4694505 3.1360474 3.4847438
0001e0 07 16 3e 40 68 df 43 40 35 f1 48 40 e1 23 51 40
       2.9700944 3.0605106 3.139722 3.2678149
0001f0 2d 54 53 40 e1 c2 69 40 d1 11 4c 40 d7 f0 47 40
       3.3020127 3.6525195 3.1885874 3.1240747
000200 c3 6b 61 40 11 37 3c 40 57 69 41 3f 62 87 35 40
       3.5222023 2.940861 0.7555136 2.836388
000210 80 45 53 40 9e fc 45 40 20 9f 68 40 65 e7 52 40
       3.301117 3.0935435 3.6347122 3.2953732

conv2.weight f4 [136, 68, 2, 2]
000000 32 8b ea be 79 85 81 be 29 78 c9 bd 66 f6 54 3f
       -0.45809323 -0.25297144 -0.09837372 0.83188474
000010 97 43 70 be 00 7c 3b 3e 82 33 1e be 99 19 36 be
       -0.23463283 0.18309021 -0.15449336 -0.17783202
000020 4f 18 6c bd 56 00 73 3e 01 4d 67 be 30 97 60 be
       -0.05764037 0.23730597 -0.22587968 -0.21932673
000030 ac fd e3 be fa 7d 9c 3e c6 f8 21 bf 7e 06 38 3e
       -0.44529474 0.30564862 -0.63270223 0.17971227
000040 d4 ed e4 3c 6d 91 34 be 43 0b 03 bf 66 65 93 bd
       0.027945437 -0.176336 -0.5118906 -0.071970746
000050 0d f4 25 3e 17 de 5d 3e eb 05 c7 bd e4 3f c4 3c
       0.16206379 0.21666752 -0.09717926 0.023956247
000060 3e 68 17 3e 98 a2 02 3f 99 03 cc be e1 06 fe 3d
       0.14785859 0.5102935 -0.39846495 0.12403656
000070 12 62 f0 bd d4 83 61 3e 21 46 83 be 52 9a 90 be
       -0.117374554 0.22022945 -0.25639442 -0.28242737
000080 69 a8 95 be 44 49 fe 3e 84 f3 22 3e 9d 7d 37 be
       -0.2923005 0.49665272 0.15913206 -0.17919011
000090 71 12 3d be b1 61 21 be 34 2b e7 be bd 27 f0 3e
       -0.18464066 -0.15759923 -0.4515015 0.46905318
0000a0 75 dd 96 3e 9f b8 48 bf 0e 3b 04 3e 66 0f 75 bf
       0.29465833 -0.7840671 0.12913153 -0.9572662
0000b0 e4 02 91 3e 93 51 82 3d 34 4a e6 3e fa 2e 63 bf
       0.28322518 0.06363215 0.44978487 -0.88743556
0000c0 40 c0 35 3e 9b 79 25 bf 6a a5 a7 3e 07 da 3a 3e
       0.17749119 -0.6463868 0.32743388 0.18247233
0000d0 44 3b 0e be c9 d1 8b 3e ef af 64 3d 3e 15 f6 be
       -0.13889796 0.2730849 0.055831846 -0.48063082
0000e0 75 2c 1b be 81 a0 03 3f 83 dd b2 3d fc 38 a8 3e
       -0.15153678 0.51416785 0.08733656 0.32855976
0000f0 4a 6d 62 be 2f 37 e5 be 0f 2a 93 3e ed 05 24 3e
       -0.22112003 -0.44768664 0.28743026 0.16017886
000100 c9 7f 1e bf 0c 9b b2 be 28 ab 3c bd e8 db 92 be
       -0.61913735 -0.34883916 -0.046061665 -0.286834
000110 dc 51 21 be 17 a8 c5 bd 12 9f ff 3e cc 84 9e be
       -0.15753883 -0.09651201 0.4992605 -0.3096069
000120 26 eb 8e be 37 21 85 3d 95 be 14 bf 1f 3e e1 3e
       -0.2791378 0.06500476 -0.58103305 0.43992707
000130 c6 8a b9 be f4 d7 1a 3e 25 18 d9 be 7f 69 94 3e
       -0.36238688 0.15121442 -0.42401233 0.28986737
000140 f4 d1 a2 3d ff 50 89 3e 37 14 91 3e 01 49 8d 3e
       0.07950202 0.26819608 0.28335735 0.2759476
000150 5b bb 86 3d 3a 4a 23 bd 82 4b ed 3c 74 7b 09 bf
       0.06578704 -0.03986571 0.028966669 -0.53704
000160 9c 34 e8 3e 28 a1 38 bd 0c c2 ae be b1 56 18 3f
       0.45352638 -0.045075566 -0.3413242 0.5950728
000170 b1 c1 84 be fb da 9b be f8 9e aa be c7 ea 0b 3e
       -0.25929025 -0.30440506 -0.3332441 0.13663779
000180 28 46 b2 bd df 9c ab 3d d8 0b 15 bc cc 47 23 bf
       -0.087047875 0.0837953 -0.009097062 -0.6378143
000190 4c 0a bf bd 11 23 56 bd b6 f3 54 be d2 f3 eb bc
       -0.09328136 -0.052279536 -0.20796093 -0.028802786
0001a0 a1 0c d3 be 31 ac 10 3f 16 1c 9c 3c b5 af 3f be
       -0.41220573 0.56512743 0.019056361 -0.1871937
0001b0 2f 95 66 3d 49 0c 86 3e 5b 7a f5 bd 5a 48 29 3e
       0.056294616 0.26181248 -0.11986228 0.16531506
0001c0 c9 06 7f bb 96 59 81 3e 54 f6 d2 be c7 df 79 be
       -0.0038913956 0.2526366 -0.41203558 -0.2440177
0001d0 a8 38 76 be 09 cc 6d be 6e 68 2d bd a3 84 8b 3e
       -0.2404505 -0.23222364 -0.04233592 0.2724963
0001e0 63 38 c1 be 5c 52 22 3f 8c 4b 7e bf e4 da c2 bd
       -0.37738332 0.6340692 -0.99334025 -0.09514406
0001f0 eb e1 46 3e f4 84 00 3f f2 39 b2 be 6d 00 3b bd
       0.19422118 0.5020287 -0.34809834 -0.045654703
000200 d5 e3 48 3e aa df 83 bd c7 ee c1 be 43 01 26 3e
       0.19618161 -0.06439145 -0.37877485 0.16211419
000210 3f a8 95 3e e6 bc 9f bd 4c d3 af 3e 96 93 e7 bc
       0.29229924 -0.077997014 0.34340894 -0.028268617
000220 40 4c 0e bf 11 23 d7 3e 5b 77 67 3d 62 22 fc be
       -0.555851 0.4201894 0.05651031 -0.49244982
000230 7e 33 c9 3d c6 ac 2e bf fe eb 8b 3e a9 62 d3 bf
       0.098242745 -0.6823238 0.27328485 -1.6514484
000240 67 70 97 3e 89 f6 86 3e 1c 99 be 3d 4f c2 1a bf
       0.29577944 0.26359966 0.09306547 -0.6045274
000250 0b 14 22 bf 18 24 2a bd 1e a6 95 3e 24 70 88 3e
       -0.63311833 -0.041538328 0.292283 0.26648057
000260 80 92 7d be 23 e9 2c be ea 02 9e 3e 7a 2a 09 bf
       -0.24762917 -0.1688581 0.30861598 -0.5358044
000270 f9 5f ab 3e cc e4 21 be e5 88 e0 be 1a 6d 25 bf
       0.3347166 -0.15809935 -0.43854442 -0.646196
000280 bc aa 99 be e6 79 e9 be 92 dc 9a 3e 33 a8 a2 be
       -0.30013072 -0.45600814 0.30246407 -0.3176895
000290 b0 ac b2 3d fb 35 15 bd 5d 56 3c bf 3a e0 ec ba
       0.08724344 -0.036428433 -0.7356928 -0.0018072196
0002a0 13 07 fa be bc 7b 18 bf a2 f8 b7 be 86 7a 6f bd
       -0.48833522 -0.59563804 -0.3593188 -0.058466457
0002b0 3f 6a 62 bf 7b 56 90 be 25 0f a8 3d 8d 65 a1 be
       -0.8844337 -0.2819098 0.082060136 -0.3152279
0002c0 ba 5a f6 be 2b a1 1a 3e b2 46 3d be fc 1a bb be
       -0.48116094 0.15100543 -0.18484 -0.36544025
0002d0 d8 28 e7 be bf 12 25 bf 19 e4 a0 be 1c 2d fa be
       -0.4514835 -0.6448173 -0.31424025 -0.4886254
0002e0 30 56 e3 3d 8b 02 8e 3d a1 fb 3c bf ae 09 b8 3e
       0.11100423 0.06934079 -0.73821455 0.35944885
0002f0 44 8f 2b bf 56 33 13 3e 66 33 27 bf 11 f5 b1 be
       -0.6701548 0.14375052 -0.653128 -0.34757283
000300 82 77 db 3d 92 c2 34 be d9 0e d6 be f4 1d ca 3e
       0.10716154 -0.17652348 -0.41808203 0.39475977
000310 24 bf ed bd 2d 7b a0 be 27 66 3d 3e 0d e2 0d bf
       -0.11608723 -0.31343976 0.18496 -0.5542305
000320 fd 19 57 3e 3c d5 d0 bd 02 3c f6 3e 95 9f db 3d
       0.21006007 -0.10196921 0.48092657 0.10723797
000330 14 47 8f bd 9c 9d b9 bd 3e 95 32 be 4c c8 80 3e
       -0.06995979 -0.09063265 -0.17439744 0.25152814
000340 45 c2 2e 3e 8c 11 56 bf 85 18 80 3e 09 8e 4d be
       0.17066295 -0.83620524 0.25018707 -0.20073713
000350 54 b3 fa bd 21 28 00 bf 31 91 f5 3c ba 04 c4 be
       -0.122412354 -0.5006123 0.02997646 -0.38284856
000360 9d f3 1e bf 31 3f 85 3d 01 8a 2c 3e a9 31 40 bf
       -0.62090474 0.065061934 0.1684952 -0.75075775
000370 6c 59 66 be e7 eb f0 3e cc 40 3c 3e 86 da e9 3e
       -0.22495049 0.4705498 0.18384093 0.45674533
000380 7d bb a3 3e a6 fe 1f bc 54 d0 9a 3e a5 07 be 3e
       0.3197898 -0.009765303 0.30237067 0.37115207
000390 3b af 1a be 84 df a4 3e 0d e3 91 be 13 6c 52 be
       -0.15105908 0.3220178 -0.28493538 -0.2054904
0003a0 6f 2b d6 3e 6c 9b 68 bd f4 b4 1c be 10 89 a1 3e
       0.41830012 -0.056788847 -0.15303403 0.31549883
0003b0 d2 2f 09 3e e4 df 97 39 9b 12 02 bd 95 fc 02 3e
       0.13397148 0.00028967776 -0.031756025 0.12791665
0003c0 ef 59 be bc 1c 73 b9 3e d5 2d 10 be 1d 4e 21 3e
       -0.023236243 0.36220634 -0.14079984 0.15752454
0003d0 3e 7e 54 be 20 f0 fe be 2a 8e cb be 62 03 00 bc
       -0.20751283 -0.49792576 -0.397569 -0.0078133065
0003e0 1e 17 93 be 5a b7 24 bd 6e 3c 3c be e6 f8 23 bf
       -0.28728575 -0.04021392 -0.18382427 -0.64051664
0003f0 41 63 63 3e 44 2b 98 3e e1 3b 4b be 54 28 27 be
       0.22205831 0.2972051 -0.1984706 -0.16323978
