GAN/save.pt (torch, 240147 bytes, 3 tensors)

conv1.weight f4 [68, 17, 4, 4]
0	0xbcbabc15	-0.022794763
1	0x3d508e3f	0.050916906
2	0x3d3b95ea	0.045797266
3	0x3cea02bb	0.028565755
4	0xbd4c7b64	-0.049922362
5	0xbd5115fe	-0.051046364
6	0xbd089c92	-0.033352442
7	0x3d0e3248	0.03471592
8	0x3c985b5c	0.018598251
9	0xbcd9b8ab	-0.026577314
10	0x3c3ecb51	0.011645154
11	0xbb1999ac	-0.0023437543
12	0xbca78438	-0.020448789
13	0xbbe428ca	-0.0069628702
14	0xbd70325f	-0.058641788
15	0xbd8cdfbb	-0.06878611
16	0xba31fd0d	-0.00067897217
17	0xbc426f28	-0.011867322
18	0xbd4fc191	-0.05072171
19	0xbc209cb9	-0.009802991
20	0xbd3fb55f	-0.04680383
21	0xbc9fd518	-0.01951079
22	0x3cb9b10c	0.02266743
23	0xbd2d5ad3	-0.042322945
24	0xbd20792d	-0.039178062
25	0x3c36844d	0.011139941
26	0xbc56f307	-0.013119466
27	0x3b26928e	0.0025416943
28	0xbd74b3bd	-0.059741724
29	0xbccc0950	-0.024906784
30	0x3cd691a3	0.026192492
31	0xbb4dea93	-0.0031420335
32	0x3d68d390	0.056842387
33	0x3ca75959	0.020428346
34	0xbb2470ec	-0.002509172
35	0x3d79e0f5	0.06100555
36	0xbd045892	-0.03231103
37	0xbb0b7594	-0.0021279799
38	0x3ca5b59c	0.0202282
39	0x3d30d247	0.043169286
40	0x3d4f087c	0.0505452
41	0xbce64e79	-0.02811359
42	0xbcd43ba3	-0.025907343
43	0xbb756b6d	-0.0037448064
44	0x3bbb2479	0.005711135
45	0xbc408605	-0.011750703
46	0x3d7fcb55	0.062449772
47	0xbc9148b8	-0.01773487
48	0x3d4dd34a	0.05025033
49	0xbbecef1f	-0.007230654
50	0x3d58708b	0.052841704
51	0xbbcb4524	-0.0062033106
52	0xbd75d909	-0.060021434
53	0xbd68ae44	-0.056806818
54	0xbd796c79	-0.060894463
55	0xbaec1ffe	-0.0018014906
56	0x3cbce671	0.023059102
57	0x3ba91d4c	0.005160963
58	0x3d124ed5	0.03571971
59	0x39508141	0.00019884577
60	0xbd866e5f	-0.0656402
61	0x3d0a06bf	0.03369784
62	0x3d0a3642	0.03374315
63	0x3cf37628	0.029719427
64	0x3d2965cd	0.04135685
65	0xbd2a2fde	-0.041549556
66	0x3d304561	0.043034915
67	0xbd9b421c	-0.07580969
68	0xbd350ec2	-0.044203527
69	0xb835b1ae	-4.331924e-05
70	0xbd84a432	-0.0647663
71	0x3d130032	0.03588886
72	0x3a650d9b	0.0008737684
73	0x3ab3e4d0	0.0013724808
74	0xbcfb80ee	-0.030701127
75	0x3d2f5230	0.04280299
76	0x3b5a77ea	0.0033335635
77	0x3d5eb2de	0.0543698
78	0x3cf36912	0.029713187
79	0xbcb7d749	-0.022441523
80	0x3da3fcdd	0.08007214
81	0x3d4bbe6c	0.049742147
82	0xbc2dd28f	-0.010609283
83	0x3c58447b	0.013199921
84	0x3c6f47ea	0.014604548
85	0xb8cbebee	-9.72374e-05
86	0xbd6cdb77	-0.057826485
87	0xbaf2bba8	-0.0018519061
88	0x3a90e3be	0.0011054201
89	0x3c3cd174	0.011524547
90	0xbc01294c	-0.007883381
91	0xbcb36f66	-0.021903705
92	0x3d0183bf	0.031619783
93	0xbd92b272	-0.07162942
94	0xbd414b18	-0.047190756
95	0xbc852e2c	-0.016257368
96	0xbd63f136	-0.05564996
97	0x3c3c3d7a	0.0114892665
98	0x3d4e625a	0.050386764
99	0x3aadd997	0.0013263699
100	0x3d1ec2ce	0.03876
101	0xbb961eef	-0.0045813243
102	0x3d186aef	0.037211355
103	0xbcaf97cb	-0.021434685
104	0x3c1d865c	0.009614553
105	0x3ae13529	0.0017181981
106	0x3d5fb1c0	0.054612875
107	0x3d18430e	0.037173323
108	0xbb5100b6	-0.0031891293
109	0x3d65e119	0.056122873
110	0x3d1bb495	0.038014013
111	0x3c8e7b55	0.017392794
112	0x3c556f3d	0.01302701
113	0xbb8ba8cb	-0.004262065
114	0x3c99088b	0.018680831
115	0xbc1011bc	-0.008793291
116	0x3d40edc5	0.047101755
117	0x3d077e54	0.03307946
118	0x3cec4bad	0.028844679
119	0x3cac328e	0.0210202
120	0x3c8fb652	0.017542992
121	0x3d94c0d3	0.07263341
122	0x3d2180d4	0.0394295
123	0x3d86a696	0.065747425
124	0x3d5471b7	0.05186626
125	0x3bd0320c	0.0063536223
126	0xbb1f50f9	-0.0024309738
127	0x3c115682	0.008870723
128	0x3d892a46	0.06697516
129	0xbc4ff749	-0.012693235
130	0xbc2d063f	-0.010560571
131	0x3cefb59d	0.029261405
132	0x3c571548	0.013127632
133	0x3cfc4774	0.03079579
134	0x3d788412	0.060672827
135	0xbc0b3b66	-0.008498048
136	0xbcb9f0a5	-0.022697756
137	0x3d33fd53	0.04394276
138	0x3c3777c1	0.011197985
139	0x3ce02d2d	0.027365291
140	0x3cd09380	0.025460958
141	0x3dab54dd	0.08365796
142	0x3bdcf88c	0.0067434963
143	0x3d1ba79f	0.038001653
144	0xbc9c0f20	-0.01905018
145	0xbd2ffdc9	-0.042966638
146	0xbc86c9fe	-0.01645374
147	0x3cd7ebed	0.026357615
148	0xbca8b765	-0.020595262
149	0xbc8579ab	-0.016293367
150	0x3d700db5	0.058606822
151	0x3c94dd7e	0.018172022
152	0x3c466f43	0.012111488
153	0x3d1ebe11	0.03875548
154	0x3d4bd0ac	0.049759552
155	0x3bea2f3c	0.007146744
156	0x3c3a1c49	0.011359283
157	0xbd1cb258	-0.03825602
158	0x3c242459	0.010018432
159	0x3d3bcc6f	0.04584926
160	0x3d2f44dc	0.04279028
161	0xbd1ea9f3	-0.038736295
162	0x3bbe72f1	0.005812042
163	0x3d2f0586	0.042729877
164	0x3d3ffe92	0.046873637
165	0xbd277831	-0.040886108
166	0x3d36c5ee	0.044622354
167	0x3ca50831	0.020145508
168	0x3d863e41	0.06554843
169	0xbcf5de77	-0.030013306
170	0xbd57cc0d	-0.052684832
171	0x3cb99828	0.022655562
172	0xbc964f0f	-0.018348245
173	0xbd312f5d	-0.04325806
174	0x3b9ff0fd	0.004881023
175	0x3d6da7b7	0.058021273
176	0x3d40c663	0.047064196
177	0xbb889dd3	-0.0041692047
178	0x3d28774a	0.041129388
179	0x3ca964b6	0.020677906
180	0xbc8ca553	-0.017168676
181	0x3bc56c12	0.006024846
182	0x3c8c2652	0.017108116
183	0xbd1ee650	-0.038793862
184	0xbb0286f6	-0.0019916869
185	0xbcc82981	-0.024433853
186	0x3c1bd9e1	0.009512396
187	0xbc903ee1	-0.017608108
188	0x3ca8353c	0.020533197
189	0xbd0434ea	-0.032277025
190	0xbba051d9	-0.0048925695
191	0x3cc072e7	0.02349229
192	0x3d00f1af	0.031480487
193	0x3d2b4afe	0.041819565
194	0xbcc04722	-0.023471419
195	0x3b33e567	0.0027449967
196	0x3d246328	0.040133625
197	0xbd50e3b1	-0.050998393
198	0x3cd7f1e7	0.026360465
199	0x3cff83d2	0.031190787
200	0xbd8acea6	-0.06777696
201	0x3d1a72f0	0.03770727
202	0x3d8ce78c	0.068801016
203	0x3be8a137	0.0070992964
204	0x3c38b39f	0.011273294
205	0x3d6cc5dd	0.057805885
206	0x3d5665d5	0.05234321
207	0xbcb6561b	-0.022257855
208	0x3bdb19a2	0.0066864053
209	0xbc28f5d0	-0.0103125125
210	0x3c6cf101	0.014461757
211	0xbc2fe421	-0.0107355425
212	0x3d294f77	0.04133555
213	0x3d6d98b0	0.058006942
214	0x3cc1300d	0.023582483
215	0x3d518f20	0.051161885
216	0xbd3f2c32	-0.046673007
217	0xbce86362	-0.028367702
218	0xbd6f046a	-0.05835382
219	0x3d036603	0.032079708
220	0x3ce28d2e	0.02765521
221	0x3c05ea5c	0.008173551
222	0xbcda8fc8	-0.026679888
223	0xbc9e2abe	-0.01930749
224	0x3d93041d	0.07178519
225	0x3d83517b	0.064120255
226	0xbb39da4e	-0.002835888
227	0x3cfea749	0.031085627
228	0x3d428368	0.0474886
229	0x3cdc39ad	0.02688297
230	0x3c002712	0.007821815
231	0x3c4edecf	0.012626364
232	0xbd1b36bb	-0.037893992
233	0xbbba57f0	-0.0056867525
234	0x3d199593	0.03749616
235	0x3ca29367	0.019845678
236	0x3c3d9434	0.011570979
237	0x3d312482	0.043247707
238	0x3d93b719	0.072126575
239	0xbcd0cd39	-0.025488483
240	0x3d5683f1	0.052371923
241	0xbbc32f26	-0.0059565483
242	0xbd58cc7b	-0.052929383
243	0xbc7059c6	-0.014669841
244	0x3d8588d6	0.0652024
245	0xbc857d62	-0.016295139
246	0xbd0b1e21	-0.03396428
247	0xbd6ba578	-0.05753085
248	0x3cac5fe9	0.021041827
249	0x3c966b4c	0.01836171
250	0xbcf66b50	-0.030080467
251	0x3cbb5d1d	0.022871548
252	0xbd90ea75	-0.07075969
253	0xbd8cbedd	-0.06872342
254	0xbd872dbd	-0.06600521
255	0xbb1ec8c9	-0.0024228564

conv2.weight f4 [136, 68, 2, 2]
0	0x3c7d7b89	0.015471348
1	0x3c8b0fd6	0.016975325
2	0x3d99c631	0.07508505
3	0x3c06c6d3	0.008226114
4	0x3cd79362	0.026315395
5	0x3d90ab56	0.0706393
6	0x3d9f9850	0.07792723
7	0xbc9a8ad2	-0.018865023
8	0xbbcbfdcf	-0.0062253247
9	0x3cef2c88	0.029196039
10	0x3cd20c1e	0.025640544
11	0xbaa9387f	-0.0012910514
12	0xbcae39c8	-0.021267787
13	0xbc74f903	-0.014951947
14	0x3ccbd92b	0.024883827
15	0xbd4a0816	-0.049324118
16	0x3da39db8	0.07989067
17	0xbbca2870	-0.0061693713
18	0x3d7dc941	0.06195951
19	0x3d25edaa	0.040509857
20	0x3d54f80a	0.05199436
21	0xbd0a6c9f	-0.033794995
22	0x3c81d1e5	0.015847156
23	0xbca17082	-0.019706968
24	0x3d4b4406	0.04962542
25	0x3caf7928	0.021420076
26	0xbcb50b41	-0.022100093
27	0xbcb97b0f	-0.022641687
28	0x3d22d705	0.03975584
29	0x3cf2b74e	0.029628422
30	0xbd689eb9	-0.056791995
31	0x3c9868c3	0.018604642
32	0xbc6c7a29	-0.014433422
33	0xbd6ea219	-0.058260057
34	0x3c3ea0c7	0.011635012
35	0xbd116d2e	-0.035504512
36	0xbd2ace14	-0.041700438
37	0xbb90a14b	-0.004413759
38	0x3d3c411d	0.045960534
39	0xbd0821dc	-0.033235416
40	0x3c1f5d0b	0.009726773
41	0xbd7757fc	-0.060386643
42	0xbcf2977d	-0.02961325
43	0xbcf9b42d	-0.030481422
44	0xbc766eb9	-0.015041047
45	0x3abd7504	0.0014454429
46	0x3d31c570	0.04340118
47	0x3d153258	0.036424965
48	0xbd1bc40f	-0.038028773
49	0xbd545b6e	-0.051845007
50	0xbd5f8b8d	-0.054576445
51	0xbb9814d8	-0.0046411566
52	0xbbcb9fdf	-0.0062141265
53	0x3d468663	0.048468005
54	0xbc82c456	-0.01596276
55	0x3cbbaf62	0.022910777
56	0x3d155964	0.036462203
57	0xbd0ad641	-0.033895735
58	0x3a8991ac	0.0010495684
59	0x3d4f31ad	0.050584484
60	0x3d7a72c9	0.061144624
61	0x3d4abe24	0.04949774
62	0x3bd64cec	0.0065399315
63	0x3d8144da	0.063119605
64	0x3c113037	0.008861593
65	0x3d87c453	0.06629243
66	0xbcaee73a	-0.021350492
67	0xbb4bc3b6	-0.0031091995
68	0x3cf5f917	0.030026002
69	0x3d7a31d5	0.06108268
70	0x3cc9bd9e	0.02462655
71	0x3d0746ca	0.033026494
72	0xbca83ff5	-0.02053831
73	0xbb9de8bc	-0.004819004
74	0x3d599a5a	0.053125717
75	0xbd1fd241	-0.039018873
76	0x3cd7a0b1	0.02632174
77	0xbd15b181	-0.036546234
78	0xbca6cd25	-0.020361492
79	0xbc145b9a	-0.009055043
80	0xbd2688ca	-0.040657796
81	0x3d637b3c	0.055537447
82	0x3d311867	0.043236163
83	0x3d364c8a	0.044506587
84	0x3d0e4617	0.03473481
85	0x3cd70ac6	0.026250254
86	0x3d14e182	0.036347874
87	0x3d68896d	0.056771684
88	0x3ce55f10	0.02799943
89	0xbd809ab5	-0.06279508
90	0x3d1a7f7a	0.037719227
91	0x3d4ec190	0.050477564
92	0xbc6f9f69	-0.014625409
93	0x3d684b8f	0.056712683
94	0xbc6f120f	-0.014591708
95	0x3d0afdb4	0.033933356
96	0xba3eac5c	-0.00072736084
97	0x3ccc956b	0.024973592
98	0xbbb72d20	-0.005590096
99	0xbd35e8a9	-0.044411335
100	0xbc93a08b	-0.018020889
101	0x3d24194e	0.040063195
102	0xbd1e761a	-0.03868685
103	0xbd060251	-0.032717053
104	0x3c02c810	0.007982269
105	0xbccd9541	-0.025095584
106	0x3d3683ba	0.044559218
107	0xb9c7e2fc	-0.00038125354
108	0x3ca86198	0.020554349
109	0x3d6e4ed7	0.058180656
110	0x3d49bf3f	0.049254652
111	0xbd10eab2	-0.035380073
112	0x380bfc98	3.337543e-05
113	0x3d3c0eea	0.04591266
114	0x3c18b8cf	0.009321406
115	0x3b122e1a	0.002230531
116	0xbc77db52	-0.015127974
117	0x3d65c3a8	0.056094795
118	0x3cd9ea03	0.026600843
119	0x3d9b6315	0.07587258
120	0x3d843f10	0.06457341
121	0x3d86035f	0.06543612
122	0xbcc8ec1a	-0.024526644
123	0x3caca032	0.02107248
124	0x3d1d6a3d	0.038431395
125	0x3b5945c1	0.0033153149
126	0xba8b0428	-0.0010606097
127	0xbb463483	-0.0030243702
128	0x3d561eae	0.052275352
129	0xbd46b009	-0.048507724
130	0x3d2640fa	0.04058931
131	0xb8d41fbc	-0.00010114859
132	0x3cc663b5	0.024217466
133	0x3d286524	0.04111208
134	0xbd4def03	-0.050276767
135	0xbd572ecf	-0.052534875
136	0x3c9e035a	0.019288708
137	0xbd3c5a24	-0.045984402
138	0x3cf9b87f	0.030483482
139	0xbd2167c4	-0.0394056
140	0x3d51087c	0.051033482
141	0x3b4d2b54	0.0031306343
142	0x3d98525c	0.07437584
143	0xbc57e2cd	-0.013176632
144	0xbcc4f567	-0.024042798
145	0x3a01631a	0.0004935727
146	0xbcf15a30	-0.02946195
147	0xbce3cf96	-0.027808946
148	0x3d43efe5	0.047836203
149	0xbbbfb525	-0.0058504515
150	0xbd454dcc	-0.048169896
151	0xbb0f0ea1	-0.0021828788
152	0xbc7f83a8	-0.015595354
153	0x3d0e0d2c	0.03468053
154	0x3cb726fd	0.022357458
155	0x3d8f2f63	0.0699146
156	0x3d3057e0	0.043052554
157	0x3b50107e	0.0031748111
158	0x3cad0b02	0.021123413
159	0x3d40c608	0.047063857
160	0x3d012087	0.03152516
161	0xbcc7d220	-0.024392188
162	0x3d6e16ce	0.058127217
163	0x3d397276	0.045275174
164	0x3d41a945	0.04728057
165	0x3d1bc69a	0.038031198
166	0x3d76f9cb	0.060296815
167	0x3d813ad9	0.063100524
168	0x3d9f5bda	0.07781191
169	0xbbc0d169	-0.0058843386
170	0x3d2101c7	0.039308336
171	0xbd109272	-0.03529591
172	0x3d1b321c	0.037889585
173	0xbb87149b	-0.0041223294
174	0x3c2b4761	0.01045403
175	0x3cbfc13d	0.023407573
176	0x3d362b06	0.044474624
177	0xbcbdd93e	-0.023174878
178	0xbcab2762	-0.020892803
179	0xbd28b333	-0.041186523
180	0xbd53fb7b	-0.051753502
181	0x3d4c7973	0.04992051
182	0xbd2daa9c	-0.042399034
183	0xbd7d9eed	-0.06191914
184	0x3ce8858d	0.028383994
185	0xbad9026f	-0.0016556511
186	0x3b5fda23	0.003415712
187	0xbce8c422	-0.028413836
188	0xbd715660	-0.058920264
189	0x3cc769aa	0.024342377
190	0xbd40fa9d	-0.047114003
191	0x3c9ee635	0.01939688
192	0xbd48e55a	-0.04904685
193	0xbd24e685	-0.040258903
194	0xbc5e6d48	-0.013575859
195	0x3c9bfb3d	0.019040698
196	0xbc99153a	-0.01868688
197	0x3cb036a8	0.021510437
198	0x3d40593a	0.046960093
199	0xbcf7b4c3	-0.030237561
200	0xbd101cf9	-0.03518388
201	0x3c24d94c	0.010061573
202	0xbd275ee6	-0.040861987
203	0xbd3a88fb	-0.04554079
204	0xbd120fb1	-0.035659496
205	0x3d2f34bc	0.0427749
206	0xbc31808d	-0.010833872
207	0xbcfabe02	-0.03060818
208	0x3d2cb5fe	0.04216575
209	0x3d1b37a1	0.03789485
210	0x3d63ec2b	0.05564515
211	0xbc206625	-0.009789978
212	0x3b55c1d7	0.0032616758
213	0x3c068072	0.008209335
214	0x3c7c899f	0.015413671
215	0xb9dc3d1c	-0.000420072
216	0x3cb8444f	0.02249351
217	0x3c62fa9a	0.013853693
218	0xbcc0c4af	-0.023531286
219	0x3d496f5c	0.049178466
220	0x3d38eeef	0.04514974
221	0xbce28dfc	-0.027655594
222	0x3d125587	0.035726096
223	0xbbfe303f	-0.007757216
224	0x3c9fc22d	0.01950177
225	0xbca64632	-0.020297144
226	0x3d1a540b	0.037677806
227	0xbba29aac	-0.004962286
228	0xbc43ba67	-0.011946297
229	0xbcfed9d2	-0.031109724
230	0x3d853172	0.065035716
231	0x3d00bdff	0.031431194
232	0xbd3156f9	-0.043295834
233	0x3d0d53d0	0.034503758
234	0xbd15240f	-0.03641134
235	0x3d2ba1f5	0.0419025
236	0xbd318e26	-0.043348454
237	0xbc47bf2a	-0.012191573
238	0x3be84fd8	0.0070895962
239	0x3d752b2c	0.059855625
240	0x3d0b7017	0.034042444
241	0x3d7cf431	0.061756317
242	0x3caef6cc	0.021357916
243	0x3d137221	0.035997514
244	0x3c463e3c	0.012099799
245	0x3d77127e	0.06032037
246	0x3c086f43	0.008327308
247	0xbc99827e	-0.018738981
248	0x3cfb2046	0.030655038
249	0x3d7b37af	0.0613324
250	0xbb1f1581	-0.0024274292
251	0x3b435cfd	0.0029810064
252	0x3d8608d5	0.06544653
253	0x3ba06518	0.004894864
254	0x3d62ec93	0.055401396
255	0xbd50e0a0	-0.05099547

linear1.weight f4 [1, 4080]
0	0x3c68caef	0.014208539
1	0x3c339389	0.010960468
2	0x3ce1c30b	0.027558824
3	0x3ce6fa99	0.028195666
4	0x3cccee57	0.025015993
5	0x3c12382e	0.008924527
6	0x3c8e9158	0.01740329
7	0x3cd76845	0.026294837
8	0x3cc7a929	0.024372654
9	0x3c89542a	0.016763765
10	0x3c2d91a8	0.010593809
11	0x3cc7f288	0.02440764
12	0x3c9b5268	0.018960193
13	0x3c9f0e83	0.0194161
14	0x3cf407f9	0.029788958
15	0x3c77d0a3	0.015125426
16	0x3ce30641	0.027712943
17	0xbb946f2e	-0.004529855
18	0xbaea3c88	-0.0017870823
19	0x3ab55447	0.0013834321
20	0xbbecfb28	-0.0072320886
21	0x3cefe79c	0.029285245
22	0x3c43fc02	0.011961939
23	0x3c34e2e1	0.01104042
24	0x3c4b350a	0.012402782
25	0x3c33b8be	0.010969339
26	0x3ca83649	0.020533698
27	0xbc16caff	-0.0092036715
28	0xbc43e80c	-0.01195718
29	0x39b18c9f	0.00033864842
30	0x3c6c9e93	0.014442104
31	0x3cc07d67	0.023497296
32	0x3cbb2c11	0.022848161
33	0x3cdf87d8	0.027286455
34	0x3c20e15a	0.009819353
35	0x3a928a12	0.0011180064
36	0x3c5043eb	0.012711505
37	0x3cbd61e5	0.023117969
38	0x3cbf27b4	0.023334362
39	0xbc7fce9c	-0.015613224
40	0x3d085470	0.03328365
41	0x3c93f947	0.0180632
42	0x3c294be3	0.010333034
43	0x3d1b9d79	0.037991975
44	0xbc43be2f	-0.011947199
45	0x3cbec60f	0.023287801
46	0x3c1e9d75	0.009681095
47	0x3ce555ae	0.027994957
48	0x3cb84359	0.022493051
49	0xbcbcb0de	-0.023033556
50	0x3cccb526	0.024988722
51	0x3c9c32e7	0.01906724
52	0x3cb54e48	0.022132054
53	0x3c4241a9	0.011856475
54	0xbcc240a9	-0.023712473
55	0xbb87e1e3	-0.004146801
56	0x3c473cb7	0.012160472
57	0xbbdcc388	-0.0067371763
58	0xbc4e2c0e	-0.012583746
59	0xbcc95c02	-0.024580006
60	0x3c2132fe	0.009838818
61	0x3c0ee57d	0.008721706
62	0x3bd7ea81	0.0065892343
63	0x3c86ef92	0.016471658
64	0xbb5d1fc4	-0.0033740858
65	0xbc473d8c	-0.01216067
66	0xbb5f8048	-0.0034103561
67	0xbc079dea	-0.008277396
68	0xbc1c6cb6	-0.009547403
69	0xbb492fa7	-0.003069857
70	0xbd04d1d5	-0.032426674
71	0xbbcf11ba	-0.006319252
72	0x3ab5cf11	0.0013870915
73	0xbc4bbdad	-0.012435359
74	0x3c5e24b4	0.013558555
75	0xbcfa6f47	-0.03057064
76	0xbbeef2da	-0.0072921338
77	0xba59f9d1	-0.00083151186
78	0xbcd6288a	-0.026142377
79	0x3c2d84bc	0.010590728
80	0xbcc25ab2	-0.023724888
81	0xbc834a4e	-0.016026642
82	0xbcfa8813	-0.030582463
83	0xbce3bc11	-0.027799638
84	0x3b104434	0.0022013308
85	0xbc15f827	-0.009153402
86	0xbc8c90d9	-0.017158912
87	0xbc8b5eeb	-0.017013034
88	0xbc3c8e6e	-0.011508567
89	0x3b63b340	0.0034744292
90	0x3ca17644	0.019709714
91	0x3bc68849	0.006058727
92	0x3cbea5a1	0.023272337
93	0x3cd5f1cf	0.02611628
94	0x3cc3e56b	0.023913106
95	0x3caf0761	0.021365823
96	0x3c5b1d38	0.0133736655
97	0x3ce382df	0.027772365
98	0x3d0bb21d	0.03410541
99	0x3bc25eef	0.005931727
100	0xbb3c1bcd	-0.0028703094
101	0x3ba8223b	0.0051310337
102	0x3c037a24	0.008024726
103	0x3ca00fdf	0.019538818
104	0x3ce4d14b	0.02793183
105	0x3ca05825	0.01957328
106	0xbbb1fc78	-0.005431708
107	0x3cdf1f86	0.027236711
108	0x3ced317e	0.028954264
109	0x3cbe511f	0.02323204
110	0x3c84c35f	0.016206441
111	0x3cc35489	0.02384402
112	0x3d04e1c0	0.032441854
113	0x3d0c251d	0.03421508
114	0x3c56d0fe	0.013111351
115	0xbc37bc5a	-0.01121434
116	0x3ce8cfb7	0.028419359
117	0x3cf816fe	0.030284401
118	0x3ca01c4d	0.019544745
119	0xba4932c5	-0.0007675107
120	0x3cc8b106	0.024498474
121	0x3c99cc69	0.018774228
122	0x3cde06a6	0.02710278
123	0x3ca64cec	0.020300351
124	0x3b45d2dc	0.0030185496
125	0x3cdea336	0.027177434
126	0x3aef162f	0.0018240864
127	0x3cc42356	0.02394263
128	0x3b976aab	0.00462087
129	0xbaa0a6dc	-0.0012256759
130	0x3cbec837	0.02328883
131	0x3cd05b15	0.025434056
132	0x3d056618	0.032568067
133	0x3cc0827a	0.023499716
134	0xbcbde61d	-0.023181016
135	0x3bafe66f	0.005368046
136	0x3c74b2b6	0.014935186
137	0x3cc77798	0.024349019
138	0xb8daca20	-0.00010432699
139	0xbb94aca5	-0.0045371824
140	0x3c7c1508	0.015385874
141	0x3c94dbce	0.018171217
142	0x3c94a831	0.018146606
143	0x3bbdce2f	0.0057924013
144	0xbc6bc206	-0.0143895205
145	0x3b999f3e	0.0046881726
146	0xbc3d12a2	-0.011540087
147	0x3ac97ed0	0.0015372876
148	0x3c73c0c3	0.014877501
149	0x3c12acd1	0.008952335
150	0x3cb139a0	0.021633923
151	0x3c81604f	0.015792994
152	0x3ce2053b	0.027590385
153	0x3c950dbb	0.018195024
154	0x3cd18724	0.025577135
155	0xba3a0498	-0.00070960214
156	0x3d107644	0.035269037
157	0x3d1c73e5	0.038196463
158	0x3c92e6ff	0.017932413
159	0x3c9d7d88	0.019224897
160	0x3cf7a6b8	0.030230865
161	0x3c9f6d65	0.019461343
162	0x3c5e9e39	0.013587528
163	0x3c5ad908	0.013357408
164	0x3d0c4921	0.03424943
165	0x3cee72b9	0.029107438
166	0x3ce00e2c	0.027350508
167	0x3cf7e935	0.030262569
168	0x3cf8d07c	0.03037285
169	0x3c93482b	0.017978748
170	0x39df1073	0.0004254613
171	0x3c83a4bd	0.016069764
172	0x3c5e28e0	0.01355955
173	0x3cf5a83e	0.02998745
174	0x3bf4ca8d	0.007470435
175	0x3cd03f88	0.025420919
176	0x3cae1366	0.021249484
177	0x3cb9f512	0.022699866
178	0x3bfee69a	0.0077789547
179	0x3c887313	0.016656434
180	0x3cb5e904	0.022205837
181	0x3d065e7f	0.032804962
182	0x3ce251bf	0.02762687
183	0x3cc317a9	0.023814993
184	0x3c4cde7f	0.012504219
185	0x3a53950d	0.00080712215
186	0x3c2cd604	0.010549072
187	0x3cc6db4a	0.024274487
188	0x3be5d08f	0.0070133875
189	0xbc6f93f9	-0.014622682
190	0xbca88024	-0.020568915
191	0x3cb472dc	0.022027425
192	0x3d1c8dfb	0.03822134
193	0x3d04aea4	0.032393113
194	0xbc257b25	-0.010100161
195	0xbc1bae15	-0.009501954
196	0x3c2108c5	0.009828751
197	0x3c8bbfbb	0.017059198
198	0x3cf850ca	0.03031196
199	0xbba55ed1	-0.0050467034
200	0xbc836272	-0.016038153
201	0xbc148757	-0.009065471
202	0x3d0056e7	0.031332877
203	0x3c6a7594	0.014310259
204	0xba18c98d	-0.0005828373
205	0xbc52a583	-0.012856844
206	0xbcb5ea88	-0.02220656
207	0xbc7e2981	-0.015512825
208	0xbbcfce03	-0.006341697
209	0xbca31c7d	-0.019911045
210	0x3cbc8435	0.02301226
211	0xbbc78ee9	-0.0060900343
212	0xbbb24dd0	-0.005441405
213	0x3c8e19d9	0.01734631
214	0x3af8f3de	0.0018993577
215	0xbbc1c1d2	-0.0059129978
216	0xbc024957	-0.007952056
217	0xbbb64e8a	-0.005563562
218	0xbc51b27a	-0.0127989
219	0x3c09d5a2	0.00841275
220	0x3a3d71b3	0.00072267203
221	0xbb5df851	-0.0033869932
222	0xbcdd444a	-0.027010102
223	0x3cc85dfa	0.024458874
224	0x3c5822f3	0.013191926
225	0x3bb89b23	0.005633728
226	0xbc0dc54e	-0.008652998
227	0xbc78af99	-0.0151785845
228	0x3cf02a27	0.029316975
229	0x3cf19ba8	0.029493168
230	0xbcc01244	-0.02344621
231	0xbcc5f18c	-0.02416303
232	0xbcb3ea91	-0.021962436
233	0x3cafef13	0.021476304
234	0xbaa20a26	-0.0012362644
235	0x3a97ce55	0.0011581877
236	0xbcce48c5	-0.025181184
237	0xbbca23d0	-0.00616882
238	0xbc0c85b0	-0.008576795
239	0x3bac138f	0.005251355
240	0xbcc31cd2	-0.023817454
241	0xbce2359b	-0.027613452
242	0xbc0ddaa5	-0.008658086
243	0xbc83f112	-0.016106162
244	0xbcc18cba	-0.023626674
245	0xbca60813	-0.020267522
246	0x3a962544	0.0011455198
247	0x3cb2e6a0	0.021838486
248	0xbb952e76	-0.0045526577
249	0xbb892d5a	-0.0041863145
250	0xbca0cfbc	-0.019630305
251	0xbcbce3e9	-0.023057895
252	0x3b25e20f	0.0025311743
253	0x3a783c4b	0.00094694336
254	0x3baf96cb	0.005358552
255	0xbb511c2e	-0.0031907666
